{"format": "graph-model", "generatedBy": "2.8.0", "convertedBy": "TensorFlow.js Converter v3.17.0", "signature": {"inputs": {"input_7": {"name": "input_7:0", "dtype": "DT_FLOAT", "tensorShape": {"dim": [{"size": "-1"}, {"size": "250"}, {"size": "250"}, {"size": "3"}]}}}, "outputs": {"dense_6": {"name": "Identity:0", "dtype": "DT_FLOAT", "tensorShape": {"dim": [{"size": "-1"}, {"size": "108"}]}}}}, "modelTopology": {"node": [{"name": "StatefulPartitionedCall/sequential_6/dense_6/MatMul/ReadVariableOp", "op": "Const", "attr": {"dtype": {"type": "DT_FLOAT"}, "value": {"tensor": {"dtype": "DT_FLOAT", "tensorShape": {"dim": [{"size": "2048"}, {"size": "108"}]}}}}}, {"name": "StatefulPartitionedCall/sequential_6/dense_6/BiasAdd/ReadVariableOp", "op": "Const", "attr": {"dtype": {"type": "DT_FLOAT"}, "value": {"tensor": {"dtype": "DT_FLOAT", "tensorShape": {"dim": [{"size": "108"}]}}}}}, {"name": "input_7", "op": "Placeholder", "attr": {"dtype": {"type": "DT_FLOAT"}, "shape": {"shape": {"dim": [{"size": "-1"}, {"size": "250"}, {"size": "250"}, {"size": "3"}]}}}}, {"name": "StatefulPartitionedCall/sequential_6/Resnet50/StatefulPartitionedCall/StatefulPartitionedCall/StatefulPartitionedCall/predict/resnet_v2_50/block1/unit_1/bottleneck_v2/conv1/Conv2D_weights", "op": "Const", "attr": {"dtype": {"type": "DT_FLOAT"}, "value": {"tensor": {"dtype": "DT_FLOAT", "tensorShape": {"dim": [{"size": "1"}, {"size": "1"}, {"size": "64"}, {"size": "64"}]}}}}}, {"name": "StatefulPartitionedCall/sequential_6/Resnet50/StatefulPartitionedCall/StatefulPartitionedCall/StatefulPartitionedCall/predict/resnet_v2_50/block1/unit_1/bottleneck_v2/conv1/Conv2D_bn_offset", "op": "Const", "attr": {"dtype": {"type": "DT_FLOAT"}, "value": {"tensor": {"dtype": "DT_FLOAT", "tensorShape": {"dim": [{"size": "64"}]}}}}}, {"name": "StatefulPartitionedCall/sequential_6/Resnet50/StatefulPartitionedCall/StatefulPartitionedCall/StatefulPartitionedCall/predict/resnet_v2_50/block1/unit_1/bottleneck_v2/conv2/Conv2D_weights", "op": "Const", "attr": {"value": {"tensor": {"dtype": "DT_FLOAT", "tensorShape": {"dim": [{"size": "3"}, {"size": "3"}, {"size": "64"}, {"size": "64"}]}}}, "dtype": {"type": "DT_FLOAT"}}}, {"name": "StatefulPartitionedCall/sequential_6/Resnet50/StatefulPartitionedCall/StatefulPartitionedCall/StatefulPartitionedCall/predict/resnet_v2_50/block1/unit_1/bottleneck_v2/conv2/Conv2D_bn_offset", "op": "Const", "attr": {"value": {"tensor": {"dtype": "DT_FLOAT", "tensorShape": {"dim": [{"size": "64"}]}}}, "dtype": {"type": "DT_FLOAT"}}}, {"name": "StatefulPartitionedCall/sequential_6/Resnet50/StatefulPartitionedCall/StatefulPartitionedCall/StatefulPartitionedCall/predict/resnet_v2_50/block1/unit_2/bottleneck_v2/conv1/Conv2D_weights", "op": "Const", "attr": {"value": {"tensor": {"dtype": "DT_FLOAT", "tensorShape": {"dim": [{"size": "1"}, {"size": "1"}, {"size": "256"}, {"size": "64"}]}}}, "dtype": {"type": "DT_FLOAT"}}}, {"name": "StatefulPartitionedCall/sequential_6/Resnet50/StatefulPartitionedCall/StatefulPartitionedCall/StatefulPartitionedCall/predict/resnet_v2_50/block1/unit_2/bottleneck_v2/conv1/Conv2D_bn_offset", "op": "Const", "attr": {"value": {"tensor": {"dtype": "DT_FLOAT", "tensorShape": {"dim": [{"size": "64"}]}}}, "dtype": {"type": "DT_FLOAT"}}}, {"name": "StatefulPartitionedCall/sequential_6/Resnet50/StatefulPartitionedCall/StatefulPartitionedCall/StatefulPartitionedCall/predict/resnet_v2_50/block1/unit_2/bottleneck_v2/conv2/Conv2D_weights", "op": "Const", "attr": {"dtype": {"type": "DT_FLOAT"}, "value": {"tensor": {"dtype": "DT_FLOAT", "tensorShape": {"dim": [{"size": "3"}, {"size": "3"}, {"size": "64"}, {"size": "64"}]}}}}}, {"name": "StatefulPartitionedCall/sequential_6/Resnet50/StatefulPartitionedCall/StatefulPartitionedCall/StatefulPartitionedCall/predict/resnet_v2_50/block1/unit_2/bottleneck_v2/conv2/Conv2D_bn_offset", "op": "Const", "attr": {"value": {"tensor": {"dtype": "DT_FLOAT", "tensorShape": {"dim": [{"size": "64"}]}}}, "dtype": {"type": "DT_FLOAT"}}}, {"name": "StatefulPartitionedCall/sequential_6/Resnet50/StatefulPartitionedCall/StatefulPartitionedCall/StatefulPartitionedCall/predict/resnet_v2_50/block1/unit_3/bottleneck_v2/conv1/Conv2D_weights", "op": "Const", "attr": {"dtype": {"type": "DT_FLOAT"}, "value": {"tensor": {"dtype": "DT_FLOAT", "tensorShape": {"dim": [{"size": "1"}, {"size": "1"}, {"size": "256"}, {"size": "64"}]}}}}}, {"name": "StatefulPartitionedCall/sequential_6/Resnet50/StatefulPartitionedCall/StatefulPartitionedCall/StatefulPartitionedCall/predict/resnet_v2_50/block1/unit_3/bottleneck_v2/conv1/Conv2D_bn_offset", "op": "Const", "attr": {"value": {"tensor": {"dtype": "DT_FLOAT", "tensorShape": {"dim": [{"size": "64"}]}}}, "dtype": {"type": "DT_FLOAT"}}}, {"name": "StatefulPartitionedCall/sequential_6/Resnet50/StatefulPartitionedCall/StatefulPartitionedCall/StatefulPartitionedCall/predict/resnet_v2_50/block1/unit_3/bottleneck_v2/conv2/Conv2D_weights", "op": "Const", "attr": {"value": {"tensor": {"dtype": "DT_FLOAT", "tensorShape": {"dim": [{"size": "3"}, {"size": "3"}, {"size": "64"}, {"size": "64"}]}}}, "dtype": {"type": "DT_FLOAT"}}}, {"name": "StatefulPartitionedCall/sequential_6/Resnet50/StatefulPartitionedCall/StatefulPartitionedCall/StatefulPartitionedCall/predict/resnet_v2_50/block1/unit_3/bottleneck_v2/conv2/Conv2D_bn_offset", "op": "Const", "attr": {"value": {"tensor": {"dtype": "DT_FLOAT", "tensorShape": {"dim": [{"size": "64"}]}}}, "dtype": {"type": "DT_FLOAT"}}}, {"name": "StatefulPartitionedCall/sequential_6/Resnet50/StatefulPartitionedCall/StatefulPartitionedCall/StatefulPartitionedCall/predict/resnet_v2_50/block2/unit_1/bottleneck_v2/conv1/Conv2D_weights", "op": "Const", "attr": {"value": {"tensor": {"dtype": "DT_FLOAT", "tensorShape": {"dim": [{"size": "1"}, {"size": "1"}, {"size": "256"}, {"size": "128"}]}}}, "dtype": {"type": "DT_FLOAT"}}}, {"name": "StatefulPartitionedCall/sequential_6/Resnet50/StatefulPartitionedCall/StatefulPartitionedCall/StatefulPartitionedCall/predict/resnet_v2_50/block2/unit_1/bottleneck_v2/conv1/Conv2D_bn_offset", "op": "Const", "attr": {"dtype": {"type": "DT_FLOAT"}, "value": {"tensor": {"dtype": "DT_FLOAT", "tensorShape": {"dim": [{"size": "128"}]}}}}}, {"name": "StatefulPartitionedCall/sequential_6/Resnet50/StatefulPartitionedCall/StatefulPartitionedCall/StatefulPartitionedCall/predict/resnet_v2_50/block2/unit_1/bottleneck_v2/conv2/Conv2D_weights", "op": "Const", "attr": {"value": {"tensor": {"dtype": "DT_FLOAT", "tensorShape": {"dim": [{"size": "3"}, {"size": "3"}, {"size": "128"}, {"size": "128"}]}}}, "dtype": {"type": "DT_FLOAT"}}}, {"name": "StatefulPartitionedCall/sequential_6/Resnet50/StatefulPartitionedCall/StatefulPartitionedCall/StatefulPartitionedCall/predict/resnet_v2_50/block2/unit_1/bottleneck_v2/conv2/Conv2D_bn_offset", "op": "Const", "attr": {"value": {"tensor": {"dtype": "DT_FLOAT", "tensorShape": {"dim": [{"size": "128"}]}}}, "dtype": {"type": "DT_FLOAT"}}}, {"name": "StatefulPartitionedCall/sequential_6/Resnet50/StatefulPartitionedCall/StatefulPartitionedCall/StatefulPartitionedCall/predict/resnet_v2_50/block2/unit_2/bottleneck_v2/conv1/Conv2D_weights", "op": "Const", "attr": {"dtype": {"type": "DT_FLOAT"}, "value": {"tensor": {"dtype": "DT_FLOAT", "tensorShape": {"dim": [{"size": "1"}, {"size": "1"}, {"size": "512"}, {"size": "128"}]}}}}}, {"name": "StatefulPartitionedCall/sequential_6/Resnet50/StatefulPartitionedCall/StatefulPartitionedCall/StatefulPartitionedCall/predict/resnet_v2_50/block2/unit_2/bottleneck_v2/conv1/Conv2D_bn_offset", "op": "Const", "attr": {"dtype": {"type": "DT_FLOAT"}, "value": {"tensor": {"dtype": "DT_FLOAT", "tensorShape": {"dim": [{"size": "128"}]}}}}}, {"name": "StatefulPartitionedCall/sequential_6/Resnet50/StatefulPartitionedCall/StatefulPartitionedCall/StatefulPartitionedCall/predict/resnet_v2_50/block2/unit_2/bottleneck_v2/conv2/Conv2D_weights", "op": "Const", "attr": {"dtype": {"type": "DT_FLOAT"}, "value": {"tensor": {"dtype": "DT_FLOAT", "tensorShape": {"dim": [{"size": "3"}, {"size": "3"}, {"size": "128"}, {"size": "128"}]}}}}}, {"name": "StatefulPartitionedCall/sequential_6/Resnet50/StatefulPartitionedCall/StatefulPartitionedCall/StatefulPartitionedCall/predict/resnet_v2_50/block2/unit_2/bottleneck_v2/conv2/Conv2D_bn_offset", "op": "Const", "attr": {"dtype": {"type": "DT_FLOAT"}, "value": {"tensor": {"dtype": "DT_FLOAT", "tensorShape": {"dim": [{"size": "128"}]}}}}}, {"name": "StatefulPartitionedCall/sequential_6/Resnet50/StatefulPartitionedCall/StatefulPartitionedCall/StatefulPartitionedCall/predict/resnet_v2_50/block2/unit_3/bottleneck_v2/conv1/Conv2D_weights", "op": "Const", "attr": {"dtype": {"type": "DT_FLOAT"}, "value": {"tensor": {"dtype": "DT_FLOAT", "tensorShape": {"dim": [{"size": "1"}, {"size": "1"}, {"size": "512"}, {"size": "128"}]}}}}}, {"name": "StatefulPartitionedCall/sequential_6/Resnet50/StatefulPartitionedCall/StatefulPartitionedCall/StatefulPartitionedCall/predict/resnet_v2_50/block2/unit_3/bottleneck_v2/conv1/Conv2D_bn_offset", "op": "Const", "attr": {"dtype": {"type": "DT_FLOAT"}, "value": {"tensor": {"dtype": "DT_FLOAT", "tensorShape": {"dim": [{"size": "128"}]}}}}}, {"name": "StatefulPartitionedCall/sequential_6/Resnet50/StatefulPartitionedCall/StatefulPartitionedCall/StatefulPartitionedCall/predict/resnet_v2_50/block2/unit_3/bottleneck_v2/conv2/Conv2D_weights", "op": "Const", "attr": {"dtype": {"type": "DT_FLOAT"}, "value": {"tensor": {"dtype": "DT_FLOAT", "tensorShape": {"dim": [{"size": "3"}, {"size": "3"}, {"size": "128"}, {"size": "128"}]}}}}}, {"name": "StatefulPartitionedCall/sequential_6/Resnet50/StatefulPartitionedCall/StatefulPartitionedCall/StatefulPartitionedCall/predict/resnet_v2_50/block2/unit_3/bottleneck_v2/conv2/Conv2D_bn_offset", "op": "Const", "attr": {"dtype": {"type": "DT_FLOAT"}, "value": {"tensor": {"dtype": "DT_FLOAT", "tensorShape": {"dim": [{"size": "128"}]}}}}}, {"name": "StatefulPartitionedCall/sequential_6/Resnet50/StatefulPartitionedCall/StatefulPartitionedCall/StatefulPartitionedCall/predict/resnet_v2_50/block2/unit_4/bottleneck_v2/conv1/Conv2D_weights", "op": "Const", "attr": {"value": {"tensor": {"dtype": "DT_FLOAT", "tensorShape": {"dim": [{"size": "1"}, {"size": "1"}, {"size": "512"}, {"size": "128"}]}}}, "dtype": {"type": "DT_FLOAT"}}}, {"name": "StatefulPartitionedCall/sequential_6/Resnet50/StatefulPartitionedCall/StatefulPartitionedCall/StatefulPartitionedCall/predict/resnet_v2_50/block2/unit_4/bottleneck_v2/conv1/Conv2D_bn_offset", "op": "Const", "attr": {"value": {"tensor": {"dtype": "DT_FLOAT", "tensorShape": {"dim": [{"size": "128"}]}}}, "dtype": {"type": "DT_FLOAT"}}}, {"name": "StatefulPartitionedCall/sequential_6/Resnet50/StatefulPartitionedCall/StatefulPartitionedCall/StatefulPartitionedCall/predict/resnet_v2_50/block2/unit_4/bottleneck_v2/conv2/Conv2D_weights", "op": "Const", "attr": {"value": {"tensor": {"dtype": "DT_FLOAT", "tensorShape": {"dim": [{"size": "3"}, {"size": "3"}, {"size": "128"}, {"size": "128"}]}}}, "dtype": {"type": "DT_FLOAT"}}}, {"name": "StatefulPartitionedCall/sequential_6/Resnet50/StatefulPartitionedCall/StatefulPartitionedCall/StatefulPartitionedCall/predict/resnet_v2_50/block2/unit_4/bottleneck_v2/conv2/Conv2D_bn_offset", "op": "Const", "attr": {"value": {"tensor": {"dtype": "DT_FLOAT", "tensorShape": {"dim": [{"size": "128"}]}}}, "dtype": {"type": "DT_FLOAT"}}}, {"name": "StatefulPartitionedCall/sequential_6/Resnet50/StatefulPartitionedCall/StatefulPartitionedCall/StatefulPartitionedCall/predict/resnet_v2_50/block3/unit_1/bottleneck_v2/conv1/Conv2D_weights", "op": "Const", "attr": {"dtype": {"type": "DT_FLOAT"}, "value": {"tensor": {"dtype": "DT_FLOAT", "tensorShape": {"dim": [{"size": "1"}, {"size": "1"}, {"size": "512"}, {"size": "256"}]}}}}}, {"name": "StatefulPartitionedCall/sequential_6/Resnet50/StatefulPartitionedCall/StatefulPartitionedCall/StatefulPartitionedCall/predict/resnet_v2_50/block3/unit_1/bottleneck_v2/conv1/Conv2D_bn_offset", "op": "Const", "attr": {"dtype": {"type": "DT_FLOAT"}, "value": {"tensor": {"dtype": "DT_FLOAT", "tensorShape": {"dim": [{"size": "256"}]}}}}}, {"name": "StatefulPartitionedCall/sequential_6/Resnet50/StatefulPartitionedCall/StatefulPartitionedCall/StatefulPartitionedCall/predict/resnet_v2_50/block3/unit_1/bottleneck_v2/conv2/Conv2D_weights", "op": "Const", "attr": {"dtype": {"type": "DT_FLOAT"}, "value": {"tensor": {"dtype": "DT_FLOAT", "tensorShape": {"dim": [{"size": "3"}, {"size": "3"}, {"size": "256"}, {"size": "256"}]}}}}}, {"name": "StatefulPartitionedCall/sequential_6/Resnet50/StatefulPartitionedCall/StatefulPartitionedCall/StatefulPartitionedCall/predict/resnet_v2_50/block3/unit_1/bottleneck_v2/conv2/Conv2D_bn_offset", "op": "Const", "attr": {"value": {"tensor": {"dtype": "DT_FLOAT", "tensorShape": {"dim": [{"size": "256"}]}}}, "dtype": {"type": "DT_FLOAT"}}}, {"name": "StatefulPartitionedCall/sequential_6/Resnet50/StatefulPartitionedCall/StatefulPartitionedCall/StatefulPartitionedCall/predict/resnet_v2_50/block3/unit_2/bottleneck_v2/conv1/Conv2D_weights", "op": "Const", "attr": {"value": {"tensor": {"dtype": "DT_FLOAT", "tensorShape": {"dim": [{"size": "1"}, {"size": "1"}, {"size": "1024"}, {"size": "256"}]}}}, "dtype": {"type": "DT_FLOAT"}}}, {"name": "StatefulPartitionedCall/sequential_6/Resnet50/StatefulPartitionedCall/StatefulPartitionedCall/StatefulPartitionedCall/predict/resnet_v2_50/block3/unit_2/bottleneck_v2/conv1/Conv2D_bn_offset", "op": "Const", "attr": {"value": {"tensor": {"dtype": "DT_FLOAT", "tensorShape": {"dim": [{"size": "256"}]}}}, "dtype": {"type": "DT_FLOAT"}}}, {"name": "StatefulPartitionedCall/sequential_6/Resnet50/StatefulPartitionedCall/StatefulPartitionedCall/StatefulPartitionedCall/predict/resnet_v2_50/block3/unit_2/bottleneck_v2/conv2/Conv2D_weights", "op": "Const", "attr": {"value": {"tensor": {"dtype": "DT_FLOAT", "tensorShape": {"dim": [{"size": "3"}, {"size": "3"}, {"size": "256"}, {"size": "256"}]}}}, "dtype": {"type": "DT_FLOAT"}}}, {"name": "StatefulPartitionedCall/sequential_6/Resnet50/StatefulPartitionedCall/StatefulPartitionedCall/StatefulPartitionedCall/predict/resnet_v2_50/block3/unit_2/bottleneck_v2/conv2/Conv2D_bn_offset", "op": "Const", "attr": {"dtype": {"type": "DT_FLOAT"}, "value": {"tensor": {"dtype": "DT_FLOAT", "tensorShape": {"dim": [{"size": "256"}]}}}}}, {"name": "StatefulPartitionedCall/sequential_6/Resnet50/StatefulPartitionedCall/StatefulPartitionedCall/StatefulPartitionedCall/predict/resnet_v2_50/block3/unit_3/bottleneck_v2/conv1/Conv2D_weights", "op": "Const", "attr": {"dtype": {"type": "DT_FLOAT"}, "value": {"tensor": {"dtype": "DT_FLOAT", "tensorShape": {"dim": [{"size": "1"}, {"size": "1"}, {"size": "1024"}, {"size": "256"}]}}}}}, {"name": "StatefulPartitionedCall/sequential_6/Resnet50/StatefulPartitionedCall/StatefulPartitionedCall/StatefulPartitionedCall/predict/resnet_v2_50/block3/unit_3/bottleneck_v2/conv1/Conv2D_bn_offset", "op": "Const", "attr": {"dtype": {"type": "DT_FLOAT"}, "value": {"tensor": {"dtype": "DT_FLOAT", "tensorShape": {"dim": [{"size": "256"}]}}}}}, {"name": "StatefulPartitionedCall/sequential_6/Resnet50/StatefulPartitionedCall/StatefulPartitionedCall/StatefulPartitionedCall/predict/resnet_v2_50/block3/unit_3/bottleneck_v2/conv2/Conv2D_weights", "op": "Const", "attr": {"value": {"tensor": {"dtype": "DT_FLOAT", "tensorShape": {"dim": [{"size": "3"}, {"size": "3"}, {"size": "256"}, {"size": "256"}]}}}, "dtype": {"type": "DT_FLOAT"}}}, {"name": "StatefulPartitionedCall/sequential_6/Resnet50/StatefulPartitionedCall/StatefulPartitionedCall/StatefulPartitionedCall/predict/resnet_v2_50/block3/unit_3/bottleneck_v2/conv2/Conv2D_bn_offset", "op": "Const", "attr": {"value": {"tensor": {"dtype": "DT_FLOAT", "tensorShape": {"dim": [{"size": "256"}]}}}, "dtype": {"type": "DT_FLOAT"}}}, {"name": "StatefulPartitionedCall/sequential_6/Resnet50/StatefulPartitionedCall/StatefulPartitionedCall/StatefulPartitionedCall/predict/resnet_v2_50/block3/unit_4/bottleneck_v2/conv1/Conv2D_weights", "op": "Const", "attr": {"value": {"tensor": {"dtype": "DT_FLOAT", "tensorShape": {"dim": [{"size": "1"}, {"size": "1"}, {"size": "1024"}, {"size": "256"}]}}}, "dtype": {"type": "DT_FLOAT"}}}, {"name": "StatefulPartitionedCall/sequential_6/Resnet50/StatefulPartitionedCall/StatefulPartitionedCall/StatefulPartitionedCall/predict/resnet_v2_50/block3/unit_4/bottleneck_v2/conv1/Conv2D_bn_offset", "op": "Const", "attr": {"dtype": {"type": "DT_FLOAT"}, "value": {"tensor": {"dtype": "DT_FLOAT", "tensorShape": {"dim": [{"size": "256"}]}}}}}, {"name": "StatefulPartitionedCall/sequential_6/Resnet50/StatefulPartitionedCall/StatefulPartitionedCall/StatefulPartitionedCall/predict/resnet_v2_50/block3/unit_4/bottleneck_v2/conv2/Conv2D_weights", "op": "Const", "attr": {"dtype": {"type": "DT_FLOAT"}, "value": {"tensor": {"dtype": "DT_FLOAT", "tensorShape": {"dim": [{"size": "3"}, {"size": "3"}, {"size": "256"}, {"size": "256"}]}}}}}, {"name": "StatefulPartitionedCall/sequential_6/Resnet50/StatefulPartitionedCall/StatefulPartitionedCall/StatefulPartitionedCall/predict/resnet_v2_50/block3/unit_4/bottleneck_v2/conv2/Conv2D_bn_offset", "op": "Const", "attr": {"dtype": {"type": "DT_FLOAT"}, "value": {"tensor": {"dtype": "DT_FLOAT", "tensorShape": {"dim": [{"size": "256"}]}}}}}, {"name": "StatefulPartitionedCall/sequential_6/Resnet50/StatefulPartitionedCall/StatefulPartitionedCall/StatefulPartitionedCall/predict/resnet_v2_50/block3/unit_5/bottleneck_v2/conv1/Conv2D_weights", "op": "Const", "attr": {"dtype": {"type": "DT_FLOAT"}, "value": {"tensor": {"dtype": "DT_FLOAT", "tensorShape": {"dim": [{"size": "1"}, {"size": "1"}, {"size": "1024"}, {"size": "256"}]}}}}}, {"name": "StatefulPartitionedCall/sequential_6/Resnet50/StatefulPartitionedCall/StatefulPartitionedCall/StatefulPartitionedCall/predict/resnet_v2_50/block3/unit_5/bottleneck_v2/conv1/Conv2D_bn_offset", "op": "Const", "attr": {"value": {"tensor": {"dtype": "DT_FLOAT", "tensorShape": {"dim": [{"size": "256"}]}}}, "dtype": {"type": "DT_FLOAT"}}}, {"name": "StatefulPartitionedCall/sequential_6/Resnet50/StatefulPartitionedCall/StatefulPartitionedCall/StatefulPartitionedCall/predict/resnet_v2_50/block3/unit_5/bottleneck_v2/conv2/Conv2D_weights", "op": "Const", "attr": {"value": {"tensor": {"dtype": "DT_FLOAT", "tensorShape": {"dim": [{"size": "3"}, {"size": "3"}, {"size": "256"}, {"size": "256"}]}}}, "dtype": {"type": "DT_FLOAT"}}}, {"name": "StatefulPartitionedCall/sequential_6/Resnet50/StatefulPartitionedCall/StatefulPartitionedCall/StatefulPartitionedCall/predict/resnet_v2_50/block3/unit_5/bottleneck_v2/conv2/Conv2D_bn_offset", "op": "Const", "attr": {"dtype": {"type": "DT_FLOAT"}, "value": {"tensor": {"dtype": "DT_FLOAT", "tensorShape": {"dim": [{"size": "256"}]}}}}}, {"name": "StatefulPartitionedCall/sequential_6/Resnet50/StatefulPartitionedCall/StatefulPartitionedCall/StatefulPartitionedCall/predict/resnet_v2_50/block3/unit_6/bottleneck_v2/conv1/Conv2D_weights", "op": "Const", "attr": {"value": {"tensor": {"dtype": "DT_FLOAT", "tensorShape": {"dim": [{"size": "1"}, {"size": "1"}, {"size": "1024"}, {"size": "256"}]}}}, "dtype": {"type": "DT_FLOAT"}}}, {"name": "StatefulPartitionedCall/sequential_6/Resnet50/StatefulPartitionedCall/StatefulPartitionedCall/StatefulPartitionedCall/predict/resnet_v2_50/block3/unit_6/bottleneck_v2/conv1/Conv2D_bn_offset", "op": "Const", "attr": {"value": {"tensor": {"dtype": "DT_FLOAT", "tensorShape": {"dim": [{"size": "256"}]}}}, "dtype": {"type": "DT_FLOAT"}}}, {"name": "StatefulPartitionedCall/sequential_6/Resnet50/StatefulPartitionedCall/StatefulPartitionedCall/StatefulPartitionedCall/predict/resnet_v2_50/block3/unit_6/bottleneck_v2/conv2/Conv2D_weights", "op": "Const", "attr": {"value": {"tensor": {"dtype": "DT_FLOAT", "tensorShape": {"dim": [{"size": "3"}, {"size": "3"}, {"size": "256"}, {"size": "256"}]}}}, "dtype": {"type": "DT_FLOAT"}}}, {"name": "StatefulPartitionedCall/sequential_6/Resnet50/StatefulPartitionedCall/StatefulPartitionedCall/StatefulPartitionedCall/predict/resnet_v2_50/block3/unit_6/bottleneck_v2/conv2/Conv2D_bn_offset", "op": "Const", "attr": {"dtype": {"type": "DT_FLOAT"}, "value": {"tensor": {"dtype": "DT_FLOAT", "tensorShape": {"dim": [{"size": "256"}]}}}}}, {"name": "StatefulPartitionedCall/sequential_6/Resnet50/StatefulPartitionedCall/StatefulPartitionedCall/StatefulPartitionedCall/predict/resnet_v2_50/block4/unit_1/bottleneck_v2/conv1/Conv2D_weights", "op": "Const", "attr": {"dtype": {"type": "DT_FLOAT"}, "value": {"tensor": {"dtype": "DT_FLOAT", "tensorShape": {"dim": [{"size": "1"}, {"size": "1"}, {"size": "1024"}, {"size": "512"}]}}}}}, {"name": "StatefulPartitionedCall/sequential_6/Resnet50/StatefulPartitionedCall/StatefulPartitionedCall/StatefulPartitionedCall/predict/resnet_v2_50/block4/unit_1/bottleneck_v2/conv1/Conv2D_bn_offset", "op": "Const", "attr": {"dtype": {"type": "DT_FLOAT"}, "value": {"tensor": {"dtype": "DT_FLOAT", "tensorShape": {"dim": [{"size": "512"}]}}}}}, {"name": "StatefulPartitionedCall/sequential_6/Resnet50/StatefulPartitionedCall/StatefulPartitionedCall/StatefulPartitionedCall/predict/resnet_v2_50/block4/unit_1/bottleneck_v2/conv2/Conv2D_weights", "op": "Const", "attr": {"value": {"tensor": {"dtype": "DT_FLOAT", "tensorShape": {"dim": [{"size": "3"}, {"size": "3"}, {"size": "512"}, {"size": "512"}]}}}, "dtype": {"type": "DT_FLOAT"}}}, {"name": "StatefulPartitionedCall/sequential_6/Resnet50/StatefulPartitionedCall/StatefulPartitionedCall/StatefulPartitionedCall/predict/resnet_v2_50/block4/unit_1/bottleneck_v2/conv2/Conv2D_bn_offset", "op": "Const", "attr": {"dtype": {"type": "DT_FLOAT"}, "value": {"tensor": {"dtype": "DT_FLOAT", "tensorShape": {"dim": [{"size": "512"}]}}}}}, {"name": "StatefulPartitionedCall/sequential_6/Resnet50/StatefulPartitionedCall/StatefulPartitionedCall/StatefulPartitionedCall/predict/resnet_v2_50/block4/unit_2/bottleneck_v2/conv1/Conv2D_weights", "op": "Const", "attr": {"dtype": {"type": "DT_FLOAT"}, "value": {"tensor": {"dtype": "DT_FLOAT", "tensorShape": {"dim": [{"size": "1"}, {"size": "1"}, {"size": "2048"}, {"size": "512"}]}}}}}, {"name": "StatefulPartitionedCall/sequential_6/Resnet50/StatefulPartitionedCall/StatefulPartitionedCall/StatefulPartitionedCall/predict/resnet_v2_50/block4/unit_2/bottleneck_v2/conv1/Conv2D_bn_offset", "op": "Const", "attr": {"dtype": {"type": "DT_FLOAT"}, "value": {"tensor": {"dtype": "DT_FLOAT", "tensorShape": {"dim": [{"size": "512"}]}}}}}, {"name": "StatefulPartitionedCall/sequential_6/Resnet50/StatefulPartitionedCall/StatefulPartitionedCall/StatefulPartitionedCall/predict/resnet_v2_50/block4/unit_2/bottleneck_v2/conv2/Conv2D_weights", "op": "Const", "attr": {"value": {"tensor": {"dtype": "DT_FLOAT", "tensorShape": {"dim": [{"size": "3"}, {"size": "3"}, {"size": "512"}, {"size": "512"}]}}}, "dtype": {"type": "DT_FLOAT"}}}, {"name": "StatefulPartitionedCall/sequential_6/Resnet50/StatefulPartitionedCall/StatefulPartitionedCall/StatefulPartitionedCall/predict/resnet_v2_50/block4/unit_2/bottleneck_v2/conv2/Conv2D_bn_offset", "op": "Const", "attr": {"value": {"tensor": {"dtype": "DT_FLOAT", "tensorShape": {"dim": [{"size": "512"}]}}}, "dtype": {"type": "DT_FLOAT"}}}, {"name": "StatefulPartitionedCall/sequential_6/Resnet50/StatefulPartitionedCall/StatefulPartitionedCall/StatefulPartitionedCall/predict/resnet_v2_50/block4/unit_3/bottleneck_v2/conv1/Conv2D_weights", "op": "Const", "attr": {"dtype": {"type": "DT_FLOAT"}, "value": {"tensor": {"dtype": "DT_FLOAT", "tensorShape": {"dim": [{"size": "1"}, {"size": "1"}, {"size": "2048"}, {"size": "512"}]}}}}}, {"name": "StatefulPartitionedCall/sequential_6/Resnet50/StatefulPartitionedCall/StatefulPartitionedCall/StatefulPartitionedCall/predict/resnet_v2_50/block4/unit_3/bottleneck_v2/conv1/Conv2D_bn_offset", "op": "Const", "attr": {"dtype": {"type": "DT_FLOAT"}, "value": {"tensor": {"dtype": "DT_FLOAT", "tensorShape": {"dim": [{"size": "512"}]}}}}}, {"name": "StatefulPartitionedCall/sequential_6/Resnet50/StatefulPartitionedCall/StatefulPartitionedCall/StatefulPartitionedCall/predict/resnet_v2_50/block4/unit_3/bottleneck_v2/conv2/Conv2D_weights", "op": "Const", "attr": {"value": {"tensor": {"dtype": "DT_FLOAT", "tensorShape": {"dim": [{"size": "3"}, {"size": "3"}, {"size": "512"}, {"size": "512"}]}}}, "dtype": {"type": "DT_FLOAT"}}}, {"name": "StatefulPartitionedCall/sequential_6/Resnet50/StatefulPartitionedCall/StatefulPartitionedCall/StatefulPartitionedCall/predict/resnet_v2_50/block4/unit_3/bottleneck_v2/conv2/Conv2D_bn_offset", "op": "Const", "attr": {"dtype": {"type": "DT_FLOAT"}, "value": {"tensor": {"dtype": "DT_FLOAT", "tensorShape": {"dim": [{"size": "512"}]}}}}}, {"name": "Func/StatefulPartitionedCall/sequential_6/Resnet50/StatefulPartitionedCall/StatefulPartitionedCall/StatefulPartitionedCall/input/_1047", "op": "Const", "input": ["^input_7"], "attr": {"value": {"tensor": {"dtype": "DT_FLOAT", "tensorShape": {"dim": [{"size": "1"}, {"size": "1"}, {"size": "1024"}, {"size": "2048"}]}}}, "dtype": {"type": "DT_FLOAT"}}}, {"name": "Func/StatefulPartitionedCall/sequential_6/Resnet50/StatefulPartitionedCall/StatefulPartitionedCall/StatefulPartitionedCall/input/_1048", "op": "Const", "input": ["^input_7"], "attr": {"value": {"tensor": {"dtype": "DT_FLOAT", "tensorShape": {"dim": [{"size": "2048"}]}}}, "dtype": {"type": "DT_FLOAT"}}}, {"name": "Func/StatefulPartitionedCall/sequential_6/Resnet50/StatefulPartitionedCall/StatefulPartitionedCall/StatefulPartitionedCall/input/_949", "op": "Const", "input": ["^input_7"], "attr": {"dtype": {"type": "DT_FLOAT"}, "value": {"tensor": {"dtype": "DT_FLOAT", "tensorShape": {"dim": [{"size": "1"}, {"size": "1"}, {"size": "512"}, {"size": "1024"}]}}}}}, {"name": "Func/StatefulPartitionedCall/sequential_6/Resnet50/StatefulPartitionedCall/StatefulPartitionedCall/StatefulPartitionedCall/input/_950", "op": "Const", "input": ["^input_7"], "attr": {"dtype": {"type": "DT_FLOAT"}, "value": {"tensor": {"dtype": "DT_FLOAT", "tensorShape": {"dim": [{"size": "1024"}]}}}}}, {"name": "Func/StatefulPartitionedCall/sequential_6/Resnet50/StatefulPartitionedCall/StatefulPartitionedCall/StatefulPartitionedCall/input/_883", "op": "Const", "input": ["^input_7"], "attr": {"value": {"tensor": {"dtype": "DT_FLOAT", "tensorShape": {"dim": [{"size": "1"}, {"size": "1"}, {"size": "256"}, {"size": "512"}]}}}, "dtype": {"type": "DT_FLOAT"}}}, {"name": "Func/StatefulPartitionedCall/sequential_6/Resnet50/StatefulPartitionedCall/StatefulPartitionedCall/StatefulPartitionedCall/input/_884", "op": "Const", "input": ["^input_7"], "attr": {"value": {"tensor": {"dtype": "DT_FLOAT", "tensorShape": {"dim": [{"size": "512"}]}}}, "dtype": {"type": "DT_FLOAT"}}}, {"name": "Func/StatefulPartitionedCall/sequential_6/Resnet50/StatefulPartitionedCall/StatefulPartitionedCall/StatefulPartitionedCall/input/_833", "op": "Const", "input": ["^input_7"], "attr": {"value": {"tensor": {"dtype": "DT_FLOAT", "tensorShape": {"dim": [{"size": "1"}, {"size": "1"}, {"size": "64"}, {"size": "256"}]}}}, "dtype": {"type": "DT_FLOAT"}}}, {"name": "Func/StatefulPartitionedCall/sequential_6/Resnet50/StatefulPartitionedCall/StatefulPartitionedCall/StatefulPartitionedCall/input/_834", "op": "Const", "input": ["^input_7"], "attr": {"value": {"tensor": {"dtype": "DT_FLOAT", "tensorShape": {"dim": [{"size": "256"}]}}}, "dtype": {"type": "DT_FLOAT"}}}, {"name": "StatefulPartitionedCall/sequential_6/Resnet50/StatefulPartitionedCall/StatefulPartitionedCall/StatefulPartitionedCall/predict/hub_input/Mul/y", "op": "Const", "input": ["^input_7"], "attr": {"value": {"tensor": {"dtype": "DT_FLOAT", "tensorShape": {}}}, "dtype": {"type": "DT_FLOAT"}}}, {"name": "StatefulPartitionedCall/sequential_6/Resnet50/StatefulPartitionedCall/StatefulPartitionedCall/StatefulPartitionedCall/predict/hub_input/Sub/y", "op": "Const", "input": ["^input_7"], "attr": {"dtype": {"type": "DT_FLOAT"}, "value": {"tensor": {"dtype": "DT_FLOAT", "tensorShape": {}}}}}, {"name": "StatefulPartitionedCall/sequential_6/Resnet50/StatefulPartitionedCall/StatefulPartitionedCall/StatefulPartitionedCall/predict/resnet_v2_50/Pad/paddings", "op": "Const", "input": ["^input_7"], "attr": {"dtype": {"type": "DT_INT32"}, "value": {"tensor": {"dtype": "DT_INT32", "tensorShape": {"dim": [{"size": "4"}, {"size": "2"}]}}}}}, {"name": "Func/StatefulPartitionedCall/sequential_6/Resnet50/StatefulPartitionedCall/StatefulPartitionedCall/StatefulPartitionedCall/input/_827", "op": "Const", "input": ["^input_7"], "attr": {"value": {"tensor": {"dtype": "DT_FLOAT", "tensorShape": {"dim": [{"size": "7"}, {"size": "7"}, {"size": "3"}, {"size": "64"}]}}}, "dtype": {"type": "DT_FLOAT"}}}, {"name": "Func/StatefulPartitionedCall/sequential_6/Resnet50/StatefulPartitionedCall/StatefulPartitionedCall/StatefulPartitionedCall/input/_828", "op": "Const", "input": ["^input_7"], "attr": {"value": {"tensor": {"dtype": "DT_FLOAT", "tensorShape": {"dim": [{"size": "64"}]}}}, "dtype": {"type": "DT_FLOAT"}}}, {"name": "StatefulPartitionedCall/sequential_6/Resnet50/StatefulPartitionedCall/StatefulPartitionedCall/StatefulPartitionedCall/predict/resnet_v2_50/block3/unit_6/bottleneck_v2/preact/FusedBatchNormV3/Offset", "op": "Const", "input": ["^input_7"], "attr": {"value": {"tensor": {"dtype": "DT_FLOAT", "tensorShape": {"dim": [{"size": "1024"}]}}}, "dtype": {"type": "DT_FLOAT"}}}, {"name": "Func/StatefulPartitionedCall/sequential_6/Resnet50/StatefulPartitionedCall/StatefulPartitionedCall/StatefulPartitionedCall/input/_845", "op": "Const", "input": ["^input_7"], "attr": {"value": {"tensor": {"dtype": "DT_FLOAT", "tensorShape": {"dim": [{"size": "1"}, {"size": "1"}, {"size": "64"}, {"size": "256"}]}}}, "dtype": {"type": "DT_FLOAT"}}}, {"name": "Func/StatefulPartitionedCall/sequential_6/Resnet50/StatefulPartitionedCall/StatefulPartitionedCall/StatefulPartitionedCall/input/_846", "op": "Const", "input": ["^input_7"], "attr": {"value": {"tensor": {"dtype": "DT_FLOAT", "tensorShape": {"dim": [{"size": "256"}]}}}, "dtype": {"type": "DT_FLOAT"}}}, {"name": "Func/StatefulPartitionedCall/sequential_6/Resnet50/StatefulPartitionedCall/StatefulPartitionedCall/StatefulPartitionedCall/input/_861", "op": "Const", "input": ["^input_7"], "attr": {"value": {"tensor": {"dtype": "DT_FLOAT", "tensorShape": {"dim": [{"size": "1"}, {"size": "1"}, {"size": "64"}, {"size": "256"}]}}}, "dtype": {"type": "DT_FLOAT"}}}, {"name": "Func/StatefulPartitionedCall/sequential_6/Resnet50/StatefulPartitionedCall/StatefulPartitionedCall/StatefulPartitionedCall/input/_862", "op": "Const", "input": ["^input_7"], "attr": {"dtype": {"type": "DT_FLOAT"}, "value": {"tensor": {"dtype": "DT_FLOAT", "tensorShape": {"dim": [{"size": "256"}]}}}}}, {"name": "StatefulPartitionedCall/sequential_6/Resnet50/StatefulPartitionedCall/StatefulPartitionedCall/StatefulPartitionedCall/predict/resnet_v2_50/block1/unit_3/bottleneck_v2/Pad/paddings", "op": "Const", "input": ["^input_7"], "attr": {"dtype": {"type": "DT_INT32"}, "value": {"tensor": {"dtype": "DT_INT32", "tensorShape": {"dim": [{"size": "4"}, {"size": "2"}]}}}}}, {"name": "Func/StatefulPartitionedCall/sequential_6/Resnet50/StatefulPartitionedCall/StatefulPartitionedCall/StatefulPartitionedCall/input/_877", "op": "Const", "input": ["^input_7"], "attr": {"value": {"tensor": {"dtype": "DT_FLOAT", "tensorShape": {"dim": [{"size": "1"}, {"size": "1"}, {"size": "64"}, {"size": "256"}]}}}, "dtype": {"type": "DT_FLOAT"}}}, {"name": "Func/StatefulPartitionedCall/sequential_6/Resnet50/StatefulPartitionedCall/StatefulPartitionedCall/StatefulPartitionedCall/input/_878", "op": "Const", "input": ["^input_7"], "attr": {"dtype": {"type": "DT_FLOAT"}, "value": {"tensor": {"dtype": "DT_FLOAT", "tensorShape": {"dim": [{"size": "256"}]}}}}}, {"name": "Func/StatefulPartitionedCall/sequential_6/Resnet50/StatefulPartitionedCall/StatefulPartitionedCall/StatefulPartitionedCall/input/_895", "op": "Const", "input": ["^input_7"], "attr": {"dtype": {"type": "DT_FLOAT"}, "value": {"tensor": {"dtype": "DT_FLOAT", "tensorShape": {"dim": [{"size": "1"}, {"size": "1"}, {"size": "128"}, {"size": "512"}]}}}}}, {"name": "Func/StatefulPartitionedCall/sequential_6/Resnet50/StatefulPartitionedCall/StatefulPartitionedCall/StatefulPartitionedCall/input/_896", "op": "Const", "input": ["^input_7"], "attr": {"dtype": {"type": "DT_FLOAT"}, "value": {"tensor": {"dtype": "DT_FLOAT", "tensorShape": {"dim": [{"size": "512"}]}}}}}, {"name": "Func/StatefulPartitionedCall/sequential_6/Resnet50/StatefulPartitionedCall/StatefulPartitionedCall/StatefulPartitionedCall/input/_911", "op": "Const", "input": ["^input_7"], "attr": {"value": {"tensor": {"dtype": "DT_FLOAT", "tensorShape": {"dim": [{"size": "1"}, {"size": "1"}, {"size": "128"}, {"size": "512"}]}}}, "dtype": {"type": "DT_FLOAT"}}}, {"name": "Func/StatefulPartitionedCall/sequential_6/Resnet50/StatefulPartitionedCall/StatefulPartitionedCall/StatefulPartitionedCall/input/_912", "op": "Const", "input": ["^input_7"], "attr": {"dtype": {"type": "DT_FLOAT"}, "value": {"tensor": {"dtype": "DT_FLOAT", "tensorShape": {"dim": [{"size": "512"}]}}}}}, {"name": "Func/StatefulPartitionedCall/sequential_6/Resnet50/StatefulPartitionedCall/StatefulPartitionedCall/StatefulPartitionedCall/input/_927", "op": "Const", "input": ["^input_7"], "attr": {"value": {"tensor": {"dtype": "DT_FLOAT", "tensorShape": {"dim": [{"size": "1"}, {"size": "1"}, {"size": "128"}, {"size": "512"}]}}}, "dtype": {"type": "DT_FLOAT"}}}, {"name": "Func/StatefulPartitionedCall/sequential_6/Resnet50/StatefulPartitionedCall/StatefulPartitionedCall/StatefulPartitionedCall/input/_928", "op": "Const", "input": ["^input_7"], "attr": {"value": {"tensor": {"dtype": "DT_FLOAT", "tensorShape": {"dim": [{"size": "512"}]}}}, "dtype": {"type": "DT_FLOAT"}}}, {"name": "StatefulPartitionedCall/sequential_6/Resnet50/StatefulPartitionedCall/StatefulPartitionedCall/StatefulPartitionedCall/predict/resnet_v2_50/block2/unit_4/bottleneck_v2/Pad/paddings", "op": "Const", "input": ["^input_7"], "attr": {"dtype": {"type": "DT_INT32"}, "value": {"tensor": {"dtype": "DT_INT32", "tensorShape": {"dim": [{"size": "4"}, {"size": "2"}]}}}}}, {"name": "Func/StatefulPartitionedCall/sequential_6/Resnet50/StatefulPartitionedCall/StatefulPartitionedCall/StatefulPartitionedCall/input/_943", "op": "Const", "input": ["^input_7"], "attr": {"value": {"tensor": {"dtype": "DT_FLOAT", "tensorShape": {"dim": [{"size": "1"}, {"size": "1"}, {"size": "128"}, {"size": "512"}]}}}, "dtype": {"type": "DT_FLOAT"}}}, {"name": "Func/StatefulPartitionedCall/sequential_6/Resnet50/StatefulPartitionedCall/StatefulPartitionedCall/StatefulPartitionedCall/input/_944", "op": "Const", "input": ["^input_7"], "attr": {"value": {"tensor": {"dtype": "DT_FLOAT", "tensorShape": {"dim": [{"size": "512"}]}}}, "dtype": {"type": "DT_FLOAT"}}}, {"name": "Func/StatefulPartitionedCall/sequential_6/Resnet50/StatefulPartitionedCall/StatefulPartitionedCall/StatefulPartitionedCall/input/_961", "op": "Const", "input": ["^input_7"], "attr": {"value": {"tensor": {"dtype": "DT_FLOAT", "tensorShape": {"dim": [{"size": "1"}, {"size": "1"}, {"size": "256"}, {"size": "1024"}]}}}, "dtype": {"type": "DT_FLOAT"}}}, {"name": "Func/StatefulPartitionedCall/sequential_6/Resnet50/StatefulPartitionedCall/StatefulPartitionedCall/StatefulPartitionedCall/input/_962", "op": "Const", "input": ["^input_7"], "attr": {"value": {"tensor": {"dtype": "DT_FLOAT", "tensorShape": {"dim": [{"size": "1024"}]}}}, "dtype": {"type": "DT_FLOAT"}}}, {"name": "Func/StatefulPartitionedCall/sequential_6/Resnet50/StatefulPartitionedCall/StatefulPartitionedCall/StatefulPartitionedCall/input/_977", "op": "Const", "input": ["^input_7"], "attr": {"value": {"tensor": {"dtype": "DT_FLOAT", "tensorShape": {"dim": [{"size": "1"}, {"size": "1"}, {"size": "256"}, {"size": "1024"}]}}}, "dtype": {"type": "DT_FLOAT"}}}, {"name": "Func/StatefulPartitionedCall/sequential_6/Resnet50/StatefulPartitionedCall/StatefulPartitionedCall/StatefulPartitionedCall/input/_978", "op": "Const", "input": ["^input_7"], "attr": {"value": {"tensor": {"dtype": "DT_FLOAT", "tensorShape": {"dim": [{"size": "1024"}]}}}, "dtype": {"type": "DT_FLOAT"}}}, {"name": "Func/StatefulPartitionedCall/sequential_6/Resnet50/StatefulPartitionedCall/StatefulPartitionedCall/StatefulPartitionedCall/input/_993", "op": "Const", "input": ["^input_7"], "attr": {"value": {"tensor": {"dtype": "DT_FLOAT", "tensorShape": {"dim": [{"size": "1"}, {"size": "1"}, {"size": "256"}, {"size": "1024"}]}}}, "dtype": {"type": "DT_FLOAT"}}}, {"name": "Func/StatefulPartitionedCall/sequential_6/Resnet50/StatefulPartitionedCall/StatefulPartitionedCall/StatefulPartitionedCall/input/_994", "op": "Const", "input": ["^input_7"], "attr": {"value": {"tensor": {"dtype": "DT_FLOAT", "tensorShape": {"dim": [{"size": "1024"}]}}}, "dtype": {"type": "DT_FLOAT"}}}, {"name": "Func/StatefulPartitionedCall/sequential_6/Resnet50/StatefulPartitionedCall/StatefulPartitionedCall/StatefulPartitionedCall/input/_1009", "op": "Const", "input": ["^input_7"], "attr": {"dtype": {"type": "DT_FLOAT"}, "value": {"tensor": {"dtype": "DT_FLOAT", "tensorShape": {"dim": [{"size": "1"}, {"size": "1"}, {"size": "256"}, {"size": "1024"}]}}}}}, {"name": "Func/StatefulPartitionedCall/sequential_6/Resnet50/StatefulPartitionedCall/StatefulPartitionedCall/StatefulPartitionedCall/input/_1010", "op": "Const", "input": ["^input_7"], "attr": {"dtype": {"type": "DT_FLOAT"}, "value": {"tensor": {"dtype": "DT_FLOAT", "tensorShape": {"dim": [{"size": "1024"}]}}}}}, {"name": "Func/StatefulPartitionedCall/sequential_6/Resnet50/StatefulPartitionedCall/StatefulPartitionedCall/StatefulPartitionedCall/input/_1025", "op": "Const", "input": ["^input_7"], "attr": {"value": {"tensor": {"dtype": "DT_FLOAT", "tensorShape": {"dim": [{"size": "1"}, {"size": "1"}, {"size": "256"}, {"size": "1024"}]}}}, "dtype": {"type": "DT_FLOAT"}}}, {"name": "Func/StatefulPartitionedCall/sequential_6/Resnet50/StatefulPartitionedCall/StatefulPartitionedCall/StatefulPartitionedCall/input/_1026", "op": "Const", "input": ["^input_7"], "attr": {"value": {"tensor": {"dtype": "DT_FLOAT", "tensorShape": {"dim": [{"size": "1024"}]}}}, "dtype": {"type": "DT_FLOAT"}}}, {"name": "StatefulPartitionedCall/sequential_6/Resnet50/StatefulPartitionedCall/StatefulPartitionedCall/StatefulPartitionedCall/predict/resnet_v2_50/block3/unit_6/bottleneck_v2/Pad/paddings", "op": "Const", "input": ["^input_7"], "attr": {"dtype": {"type": "DT_INT32"}, "value": {"tensor": {"dtype": "DT_INT32", "tensorShape": {"dim": [{"size": "4"}, {"size": "2"}]}}}}}, {"name": "Func/StatefulPartitionedCall/sequential_6/Resnet50/StatefulPartitionedCall/StatefulPartitionedCall/StatefulPartitionedCall/input/_1041", "op": "Const", "input": ["^input_7"], "attr": {"value": {"tensor": {"dtype": "DT_FLOAT", "tensorShape": {"dim": [{"size": "1"}, {"size": "1"}, {"size": "256"}, {"size": "1024"}]}}}, "dtype": {"type": "DT_FLOAT"}}}, {"name": "Func/StatefulPartitionedCall/sequential_6/Resnet50/StatefulPartitionedCall/StatefulPartitionedCall/StatefulPartitionedCall/input/_1042", "op": "Const", "input": ["^input_7"], "attr": {"value": {"tensor": {"dtype": "DT_FLOAT", "tensorShape": {"dim": [{"size": "1024"}]}}}, "dtype": {"type": "DT_FLOAT"}}}, {"name": "Func/StatefulPartitionedCall/sequential_6/Resnet50/StatefulPartitionedCall/StatefulPartitionedCall/StatefulPartitionedCall/input/_1059", "op": "Const", "input": ["^input_7"], "attr": {"dtype": {"type": "DT_FLOAT"}, "value": {"tensor": {"dtype": "DT_FLOAT", "tensorShape": {"dim": [{"size": "1"}, {"size": "1"}, {"size": "512"}, {"size": "2048"}]}}}}}, {"name": "Func/StatefulPartitionedCall/sequential_6/Resnet50/StatefulPartitionedCall/StatefulPartitionedCall/StatefulPartitionedCall/input/_1060", "op": "Const", "input": ["^input_7"], "attr": {"value": {"tensor": {"dtype": "DT_FLOAT", "tensorShape": {"dim": [{"size": "2048"}]}}}, "dtype": {"type": "DT_FLOAT"}}}, {"name": "Func/StatefulPartitionedCall/sequential_6/Resnet50/StatefulPartitionedCall/StatefulPartitionedCall/StatefulPartitionedCall/input/_1075", "op": "Const", "input": ["^input_7"], "attr": {"dtype": {"type": "DT_FLOAT"}, "value": {"tensor": {"dtype": "DT_FLOAT", "tensorShape": {"dim": [{"size": "1"}, {"size": "1"}, {"size": "512"}, {"size": "2048"}]}}}}}, {"name": "Func/StatefulPartitionedCall/sequential_6/Resnet50/StatefulPartitionedCall/StatefulPartitionedCall/StatefulPartitionedCall/input/_1076", "op": "Const", "input": ["^input_7"], "attr": {"dtype": {"type": "DT_FLOAT"}, "value": {"tensor": {"dtype": "DT_FLOAT", "tensorShape": {"dim": [{"size": "2048"}]}}}}}, {"name": "Func/StatefulPartitionedCall/sequential_6/Resnet50/StatefulPartitionedCall/StatefulPartitionedCall/StatefulPartitionedCall/input/_1091", "op": "Const", "input": ["^input_7"], "attr": {"value": {"tensor": {"dtype": "DT_FLOAT", "tensorShape": {"dim": [{"size": "1"}, {"size": "1"}, {"size": "512"}, {"size": "2048"}]}}}, "dtype": {"type": "DT_FLOAT"}}}, {"name": "Func/StatefulPartitionedCall/sequential_6/Resnet50/StatefulPartitionedCall/StatefulPartitionedCall/StatefulPartitionedCall/input/_1092", "op": "Const", "input": ["^input_7"], "attr": {"dtype": {"type": "DT_FLOAT"}, "value": {"tensor": {"dtype": "DT_FLOAT", "tensorShape": {"dim": [{"size": "2048"}]}}}}}, {"name": "StatefulPartitionedCall/sequential_6/Resnet50/StatefulPartitionedCall/StatefulPartitionedCall/StatefulPartitionedCall/predict/resnet_v2_50/pool5/reduction_indices", "op": "Const", "input": ["^input_7"], "attr": {"dtype": {"type": "DT_INT32"}, "value": {"tensor": {"dtype": "DT_INT32", "tensorShape": {"dim": [{"size": "2"}]}}}}}, {"name": "StatefulPartitionedCall/sequential_6/Resnet50/StatefulPartitionedCall/StatefulPartitionedCall/StatefulPartitionedCall/predict/resnet_v2_50/block3/unit_5/bottleneck_v2/preact/FusedBatchNormV3/Scaled", "op": "Const", "input": ["^input_7"], "attr": {"value": {"tensor": {"dtype": "DT_FLOAT", "tensorShape": {"dim": [{"size": "1024"}]}}}, "dtype": {"type": "DT_FLOAT"}}}, {"name": "StatefulPartitionedCall/sequential_6/Resnet50/StatefulPartitionedCall/StatefulPartitionedCall/StatefulPartitionedCall/predict/resnet_v2_50/block3/unit_5/bottleneck_v2/preact/FusedBatchNormV3/Offset", "op": "Const", "input": ["^input_7"], "attr": {"dtype": {"type": "DT_FLOAT"}, "value": {"tensor": {"dtype": "DT_FLOAT", "tensorShape": {"dim": [{"size": "1024"}]}}}}}, {"name": "StatefulPartitionedCall/sequential_6/Resnet50/StatefulPartitionedCall/StatefulPartitionedCall/StatefulPartitionedCall/predict/resnet_v2_50/block3/unit_4/bottleneck_v2/preact/FusedBatchNormV3/Scaled", "op": "Const", "input": ["^input_7"], "attr": {"dtype": {"type": "DT_FLOAT"}, "value": {"tensor": {"dtype": "DT_FLOAT", "tensorShape": {"dim": [{"size": "1024"}]}}}}}, {"name": "StatefulPartitionedCall/sequential_6/Resnet50/StatefulPartitionedCall/StatefulPartitionedCall/StatefulPartitionedCall/predict/resnet_v2_50/block3/unit_4/bottleneck_v2/preact/FusedBatchNormV3/Offset", "op": "Const", "input": ["^input_7"], "attr": {"dtype": {"type": "DT_FLOAT"}, "value": {"tensor": {"dtype": "DT_FLOAT", "tensorShape": {"dim": [{"size": "1024"}]}}}}}, {"name": "StatefulPartitionedCall/sequential_6/Resnet50/StatefulPartitionedCall/StatefulPartitionedCall/StatefulPartitionedCall/predict/resnet_v2_50/block3/unit_3/bottleneck_v2/preact/FusedBatchNormV3/Scaled", "op": "Const", "input": ["^input_7"], "attr": {"value": {"tensor": {"dtype": "DT_FLOAT", "tensorShape": {"dim": [{"size": "1024"}]}}}, "dtype": {"type": "DT_FLOAT"}}}, {"name": "StatefulPartitionedCall/sequential_6/Resnet50/StatefulPartitionedCall/StatefulPartitionedCall/StatefulPartitionedCall/predict/resnet_v2_50/block3/unit_3/bottleneck_v2/preact/FusedBatchNormV3/Offset", "op": "Const", "input": ["^input_7"], "attr": {"value": {"tensor": {"dtype": "DT_FLOAT", "tensorShape": {"dim": [{"size": "1024"}]}}}, "dtype": {"type": "DT_FLOAT"}}}, {"name": "StatefulPartitionedCall/sequential_6/Resnet50/StatefulPartitionedCall/StatefulPartitionedCall/StatefulPartitionedCall/predict/resnet_v2_50/block3/unit_2/bottleneck_v2/preact/FusedBatchNormV3/Scaled", "op": "Const", "input": ["^input_7"], "attr": {"dtype": {"type": "DT_FLOAT"}, "value": {"tensor": {"dtype": "DT_FLOAT", "tensorShape": {"dim": [{"size": "1024"}]}}}}}, {"name": "StatefulPartitionedCall/sequential_6/Resnet50/StatefulPartitionedCall/StatefulPartitionedCall/StatefulPartitionedCall/predict/resnet_v2_50/block3/unit_2/bottleneck_v2/preact/FusedBatchNormV3/Offset", "op": "Const", "input": ["^input_7"], "attr": {"value": {"tensor": {"dtype": "DT_FLOAT", "tensorShape": {"dim": [{"size": "1024"}]}}}, "dtype": {"type": "DT_FLOAT"}}}, {"name": "StatefulPartitionedCall/sequential_6/Resnet50/StatefulPartitionedCall/StatefulPartitionedCall/StatefulPartitionedCall/predict/resnet_v2_50/block3/unit_1/bottleneck_v2/preact/FusedBatchNormV3/Scaled", "op": "Const", "input": ["^input_7"], "attr": {"value": {"tensor": {"dtype": "DT_FLOAT", "tensorShape": {"dim": [{"size": "512"}]}}}, "dtype": {"type": "DT_FLOAT"}}}, {"name": "StatefulPartitionedCall/sequential_6/Resnet50/StatefulPartitionedCall/StatefulPartitionedCall/StatefulPartitionedCall/predict/resnet_v2_50/block3/unit_1/bottleneck_v2/preact/FusedBatchNormV3/Offset", "op": "Const", "input": ["^input_7"], "attr": {"value": {"tensor": {"dtype": "DT_FLOAT", "tensorShape": {"dim": [{"size": "512"}]}}}, "dtype": {"type": "DT_FLOAT"}}}, {"name": "StatefulPartitionedCall/sequential_6/Resnet50/StatefulPartitionedCall/StatefulPartitionedCall/StatefulPartitionedCall/predict/resnet_v2_50/block2/unit_4/bottleneck_v2/preact/FusedBatchNormV3/Scaled", "op": "Const", "input": ["^input_7"], "attr": {"dtype": {"type": "DT_FLOAT"}, "value": {"tensor": {"dtype": "DT_FLOAT", "tensorShape": {"dim": [{"size": "512"}]}}}}}, {"name": "StatefulPartitionedCall/sequential_6/Resnet50/StatefulPartitionedCall/StatefulPartitionedCall/StatefulPartitionedCall/predict/resnet_v2_50/block2/unit_4/bottleneck_v2/preact/FusedBatchNormV3/Offset", "op": "Const", "input": ["^input_7"], "attr": {"dtype": {"type": "DT_FLOAT"}, "value": {"tensor": {"dtype": "DT_FLOAT", "tensorShape": {"dim": [{"size": "512"}]}}}}}, {"name": "StatefulPartitionedCall/sequential_6/Resnet50/StatefulPartitionedCall/StatefulPartitionedCall/StatefulPartitionedCall/predict/resnet_v2_50/block2/unit_3/bottleneck_v2/preact/FusedBatchNormV3/Scaled", "op": "Const", "input": ["^input_7"], "attr": {"dtype": {"type": "DT_FLOAT"}, "value": {"tensor": {"dtype": "DT_FLOAT", "tensorShape": {"dim": [{"size": "512"}]}}}}}, {"name": "StatefulPartitionedCall/sequential_6/Resnet50/StatefulPartitionedCall/StatefulPartitionedCall/StatefulPartitionedCall/predict/resnet_v2_50/block2/unit_3/bottleneck_v2/preact/FusedBatchNormV3/Offset", "op": "Const", "input": ["^input_7"], "attr": {"value": {"tensor": {"dtype": "DT_FLOAT", "tensorShape": {"dim": [{"size": "512"}]}}}, "dtype": {"type": "DT_FLOAT"}}}, {"name": "StatefulPartitionedCall/sequential_6/Resnet50/StatefulPartitionedCall/StatefulPartitionedCall/StatefulPartitionedCall/predict/resnet_v2_50/block2/unit_2/bottleneck_v2/preact/FusedBatchNormV3/Scaled", "op": "Const", "input": ["^input_7"], "attr": {"dtype": {"type": "DT_FLOAT"}, "value": {"tensor": {"dtype": "DT_FLOAT", "tensorShape": {"dim": [{"size": "512"}]}}}}}, {"name": "StatefulPartitionedCall/sequential_6/Resnet50/StatefulPartitionedCall/StatefulPartitionedCall/StatefulPartitionedCall/predict/resnet_v2_50/block2/unit_2/bottleneck_v2/preact/FusedBatchNormV3/Offset", "op": "Const", "input": ["^input_7"], "attr": {"dtype": {"type": "DT_FLOAT"}, "value": {"tensor": {"dtype": "DT_FLOAT", "tensorShape": {"dim": [{"size": "512"}]}}}}}, {"name": "StatefulPartitionedCall/sequential_6/Resnet50/StatefulPartitionedCall/StatefulPartitionedCall/StatefulPartitionedCall/predict/resnet_v2_50/block2/unit_1/bottleneck_v2/preact/FusedBatchNormV3/Scaled", "op": "Const", "input": ["^input_7"], "attr": {"dtype": {"type": "DT_FLOAT"}, "value": {"tensor": {"dtype": "DT_FLOAT", "tensorShape": {"dim": [{"size": "256"}]}}}}}, {"name": "StatefulPartitionedCall/sequential_6/Resnet50/StatefulPartitionedCall/StatefulPartitionedCall/StatefulPartitionedCall/predict/resnet_v2_50/block2/unit_1/bottleneck_v2/preact/FusedBatchNormV3/Offset", "op": "Const", "input": ["^input_7"], "attr": {"value": {"tensor": {"dtype": "DT_FLOAT", "tensorShape": {"dim": [{"size": "256"}]}}}, "dtype": {"type": "DT_FLOAT"}}}, {"name": "StatefulPartitionedCall/sequential_6/Resnet50/StatefulPartitionedCall/StatefulPartitionedCall/StatefulPartitionedCall/predict/resnet_v2_50/block1/unit_3/bottleneck_v2/preact/FusedBatchNormV3/Scaled", "op": "Const", "input": ["^input_7"], "attr": {"value": {"tensor": {"dtype": "DT_FLOAT", "tensorShape": {"dim": [{"size": "256"}]}}}, "dtype": {"type": "DT_FLOAT"}}}, {"name": "StatefulPartitionedCall/sequential_6/Resnet50/StatefulPartitionedCall/StatefulPartitionedCall/StatefulPartitionedCall/predict/resnet_v2_50/block1/unit_3/bottleneck_v2/preact/FusedBatchNormV3/Offset", "op": "Const", "input": ["^input_7"], "attr": {"dtype": {"type": "DT_FLOAT"}, "value": {"tensor": {"dtype": "DT_FLOAT", "tensorShape": {"dim": [{"size": "256"}]}}}}}, {"name": "StatefulPartitionedCall/sequential_6/Resnet50/StatefulPartitionedCall/StatefulPartitionedCall/StatefulPartitionedCall/predict/resnet_v2_50/block1/unit_2/bottleneck_v2/preact/FusedBatchNormV3/Scaled", "op": "Const", "input": ["^input_7"], "attr": {"dtype": {"type": "DT_FLOAT"}, "value": {"tensor": {"dtype": "DT_FLOAT", "tensorShape": {"dim": [{"size": "256"}]}}}}}, {"name": "StatefulPartitionedCall/sequential_6/Resnet50/StatefulPartitionedCall/StatefulPartitionedCall/StatefulPartitionedCall/predict/resnet_v2_50/block1/unit_2/bottleneck_v2/preact/FusedBatchNormV3/Offset", "op": "Const", "input": ["^input_7"], "attr": {"value": {"tensor": {"dtype": "DT_FLOAT", "tensorShape": {"dim": [{"size": "256"}]}}}, "dtype": {"type": "DT_FLOAT"}}}, {"name": "StatefulPartitionedCall/sequential_6/Resnet50/StatefulPartitionedCall/StatefulPartitionedCall/StatefulPartitionedCall/predict/resnet_v2_50/block1/unit_1/bottleneck_v2/preact/FusedBatchNormV3/Scaled", "op": "Const", "input": ["^input_7"], "attr": {"dtype": {"type": "DT_FLOAT"}, "value": {"tensor": {"dtype": "DT_FLOAT", "tensorShape": {"dim": [{"size": "64"}]}}}}}, {"name": "StatefulPartitionedCall/sequential_6/Resnet50/StatefulPartitionedCall/StatefulPartitionedCall/StatefulPartitionedCall/predict/resnet_v2_50/block1/unit_1/bottleneck_v2/preact/FusedBatchNormV3/Offset", "op": "Const", "input": ["^input_7"], "attr": {"dtype": {"type": "DT_FLOAT"}, "value": {"tensor": {"dtype": "DT_FLOAT", "tensorShape": {"dim": [{"size": "64"}]}}}}}, {"name": "StatefulPartitionedCall/sequential_6/Resnet50/StatefulPartitionedCall/StatefulPartitionedCall/StatefulPartitionedCall/predict/resnet_v2_50/postnorm/FusedBatchNormV3/Scaled", "op": "Const", "input": ["^input_7"], "attr": {"dtype": {"type": "DT_FLOAT"}, "value": {"tensor": {"dtype": "DT_FLOAT", "tensorShape": {"dim": [{"size": "2048"}]}}}}}, {"name": "StatefulPartitionedCall/sequential_6/Resnet50/StatefulPartitionedCall/StatefulPartitionedCall/StatefulPartitionedCall/predict/resnet_v2_50/postnorm/FusedBatchNormV3/Offset", "op": "Const", "input": ["^input_7"], "attr": {"value": {"tensor": {"dtype": "DT_FLOAT", "tensorShape": {"dim": [{"size": "2048"}]}}}, "dtype": {"type": "DT_FLOAT"}}}, {"name": "StatefulPartitionedCall/sequential_6/Resnet50/StatefulPartitionedCall/StatefulPartitionedCall/StatefulPartitionedCall/predict/resnet_v2_50/block4/unit_3/bottleneck_v2/preact/FusedBatchNormV3/Scaled", "op": "Const", "input": ["^input_7"], "attr": {"dtype": {"type": "DT_FLOAT"}, "value": {"tensor": {"dtype": "DT_FLOAT", "tensorShape": {"dim": [{"size": "2048"}]}}}}}, {"name": "StatefulPartitionedCall/sequential_6/Resnet50/StatefulPartitionedCall/StatefulPartitionedCall/StatefulPartitionedCall/predict/resnet_v2_50/block4/unit_3/bottleneck_v2/preact/FusedBatchNormV3/Offset", "op": "Const", "input": ["^input_7"], "attr": {"dtype": {"type": "DT_FLOAT"}, "value": {"tensor": {"dtype": "DT_FLOAT", "tensorShape": {"dim": [{"size": "2048"}]}}}}}, {"name": "StatefulPartitionedCall/sequential_6/Resnet50/StatefulPartitionedCall/StatefulPartitionedCall/StatefulPartitionedCall/predict/resnet_v2_50/block4/unit_2/bottleneck_v2/preact/FusedBatchNormV3/Scaled", "op": "Const", "input": ["^input_7"], "attr": {"value": {"tensor": {"dtype": "DT_FLOAT", "tensorShape": {"dim": [{"size": "2048"}]}}}, "dtype": {"type": "DT_FLOAT"}}}, {"name": "StatefulPartitionedCall/sequential_6/Resnet50/StatefulPartitionedCall/StatefulPartitionedCall/StatefulPartitionedCall/predict/resnet_v2_50/block4/unit_2/bottleneck_v2/preact/FusedBatchNormV3/Offset", "op": "Const", "input": ["^input_7"], "attr": {"value": {"tensor": {"dtype": "DT_FLOAT", "tensorShape": {"dim": [{"size": "2048"}]}}}, "dtype": {"type": "DT_FLOAT"}}}, {"name": "StatefulPartitionedCall/sequential_6/Resnet50/StatefulPartitionedCall/StatefulPartitionedCall/StatefulPartitionedCall/predict/resnet_v2_50/block4/unit_1/bottleneck_v2/preact/FusedBatchNormV3/Scaled", "op": "Const", "input": ["^input_7"], "attr": {"value": {"tensor": {"dtype": "DT_FLOAT", "tensorShape": {"dim": [{"size": "1024"}]}}}, "dtype": {"type": "DT_FLOAT"}}}, {"name": "StatefulPartitionedCall/sequential_6/Resnet50/StatefulPartitionedCall/StatefulPartitionedCall/StatefulPartitionedCall/predict/resnet_v2_50/block4/unit_1/bottleneck_v2/preact/FusedBatchNormV3/Offset", "op": "Const", "input": ["^input_7"], "attr": {"dtype": {"type": "DT_FLOAT"}, "value": {"tensor": {"dtype": "DT_FLOAT", "tensorShape": {"dim": [{"size": "1024"}]}}}}}, {"name": "StatefulPartitionedCall/sequential_6/Resnet50/StatefulPartitionedCall/StatefulPartitionedCall/StatefulPartitionedCall/predict/resnet_v2_50/block3/unit_6/bottleneck_v2/preact/FusedBatchNormV3/Scaled", "op": "Const", "input": ["^input_7"], "attr": {"value": {"tensor": {"dtype": "DT_FLOAT", "tensorShape": {"dim": [{"size": "1024"}]}}}, "dtype": {"type": "DT_FLOAT"}}}, {"name": "StatefulPartitionedCall/sequential_6/Resnet50/StatefulPartitionedCall/StatefulPartitionedCall/StatefulPartitionedCall/predict/hub_input/Mul", "op": "Mul", "input": ["input_7", "StatefulPartitionedCall/sequential_6/Resnet50/StatefulPartitionedCall/StatefulPartitionedCall/StatefulPartitionedCall/predict/hub_input/Mul/y"], "attr": {"T": {"type": "DT_FLOAT"}}}, {"name": "StatefulPartitionedCall/sequential_6/Resnet50/StatefulPartitionedCall/StatefulPartitionedCall/StatefulPartitionedCall/predict/hub_input/Sub", "op": "Sub", "input": ["StatefulPartitionedCall/sequential_6/Resnet50/StatefulPartitionedCall/StatefulPartitionedCall/StatefulPartitionedCall/predict/hub_input/Mul", "StatefulPartitionedCall/sequential_6/Resnet50/StatefulPartitionedCall/StatefulPartitionedCall/StatefulPartitionedCall/predict/hub_input/Sub/y"], "attr": {"T": {"type": "DT_FLOAT"}}}, {"name": "StatefulPartitionedCall/sequential_6/Resnet50/StatefulPartitionedCall/StatefulPartitionedCall/StatefulPartitionedCall/predict/resnet_v2_50/Pad", "op": "Pad", "input": ["StatefulPartitionedCall/sequential_6/Resnet50/StatefulPartitionedCall/StatefulPartitionedCall/StatefulPartitionedCall/predict/hub_input/Sub", "StatefulPartitionedCall/sequential_6/Resnet50/StatefulPartitionedCall/StatefulPartitionedCall/StatefulPartitionedCall/predict/resnet_v2_50/Pad/paddings"], "attr": {"T": {"type": "DT_FLOAT"}, "Tpaddings": {"type": "DT_INT32"}}}, {"name": "StatefulPartitionedCall/sequential_6/Resnet50/StatefulPartitionedCall/StatefulPartitionedCall/StatefulPartitionedCall/predict/resnet_v2_50/conv1/BiasAdd", "op": "_FusedConv2D", "input": ["StatefulPartitionedCall/sequential_6/Resnet50/StatefulPartitionedCall/StatefulPartitionedCall/StatefulPartitionedCall/predict/resnet_v2_50/Pad", "Func/StatefulPartitionedCall/sequential_6/Resnet50/StatefulPartitionedCall/StatefulPartitionedCall/StatefulPartitionedCall/input/_827", "Func/StatefulPartitionedCall/sequential_6/Resnet50/StatefulPartitionedCall/StatefulPartitionedCall/StatefulPartitionedCall/input/_828"], "device": "/device:CPU:0", "attr": {"T": {"type": "DT_FLOAT"}, "use_cudnn_on_gpu": {"b": true}, "padding": {"s": "VkFMSUQ="}, "dilations": {"list": {"i": ["1", "1", "1", "1"]}}, "strides": {"list": {"i": ["1", "2", "2", "1"]}}, "fused_ops": {"list": {"s": ["Qmlhc0FkZA=="]}}, "explicit_paddings": {"list": {}}, "epsilon": {"f": 0.0}, "num_args": {"i": "1"}, "data_format": {"s": "TkhXQw=="}}}, {"name": "StatefulPartitionedCall/sequential_6/Resnet50/StatefulPartitionedCall/StatefulPartitionedCall/StatefulPartitionedCall/predict/resnet_v2_50/pool1/MaxPool", "op": "MaxPool", "input": ["StatefulPartitionedCall/sequential_6/Resnet50/StatefulPartitionedCall/StatefulPartitionedCall/StatefulPartitionedCall/predict/resnet_v2_50/conv1/BiasAdd"], "attr": {"data_format": {"s": "TkhXQw=="}, "padding": {"s": "U0FNRQ=="}, "strides": {"list": {"i": ["1", "2", "2", "1"]}}, "explicit_paddings": {"list": {}}, "T": {"type": "DT_FLOAT"}, "ksize": {"list": {"i": ["1", "3", "3", "1"]}}}}, {"name": "StatefulPartitionedCall/sequential_6/Resnet50/StatefulPartitionedCall/StatefulPartitionedCall/StatefulPartitionedCall/predict/resnet_v2_50/block1/unit_1/bottleneck_v2/preact/FusedBatchNormV3/Mul", "op": "Mul", "input": ["StatefulPartitionedCall/sequential_6/Resnet50/StatefulPartitionedCall/StatefulPartitionedCall/StatefulPartitionedCall/predict/resnet_v2_50/pool1/MaxPool", "StatefulPartitionedCall/sequential_6/Resnet50/StatefulPartitionedCall/StatefulPartitionedCall/StatefulPartitionedCall/predict/resnet_v2_50/block1/unit_1/bottleneck_v2/preact/FusedBatchNormV3/Scaled"], "attr": {"T": {"type": "DT_FLOAT"}}}, {"name": "StatefulPartitionedCall/sequential_6/Resnet50/StatefulPartitionedCall/StatefulPartitionedCall/StatefulPartitionedCall/predict/resnet_v2_50/block1/unit_1/bottleneck_v2/preact/FusedBatchNormV3", "op": "Add", "input": ["StatefulPartitionedCall/sequential_6/Resnet50/StatefulPartitionedCall/StatefulPartitionedCall/StatefulPartitionedCall/predict/resnet_v2_50/block1/unit_1/bottleneck_v2/preact/FusedBatchNormV3/Mul", "StatefulPartitionedCall/sequential_6/Resnet50/StatefulPartitionedCall/StatefulPartitionedCall/StatefulPartitionedCall/predict/resnet_v2_50/block1/unit_1/bottleneck_v2/preact/FusedBatchNormV3/Offset"], "attr": {"T": {"type": "DT_FLOAT"}}}, {"name": "StatefulPartitionedCall/sequential_6/Resnet50/StatefulPartitionedCall/StatefulPartitionedCall/StatefulPartitionedCall/predict/resnet_v2_50/block1/unit_1/bottleneck_v2/preact/Relu", "op": "Relu", "input": ["StatefulPartitionedCall/sequential_6/Resnet50/StatefulPartitionedCall/StatefulPartitionedCall/StatefulPartitionedCall/predict/resnet_v2_50/block1/unit_1/bottleneck_v2/preact/FusedBatchNormV3"], "attr": {"T": {"type": "DT_FLOAT"}}}, {"name": "StatefulPartitionedCall/sequential_6/Resnet50/StatefulPartitionedCall/StatefulPartitionedCall/StatefulPartitionedCall/predict/resnet_v2_50/block1/unit_1/bottleneck_v2/shortcut/BiasAdd", "op": "_FusedConv2D", "input": ["StatefulPartitionedCall/sequential_6/Resnet50/StatefulPartitionedCall/StatefulPartitionedCall/StatefulPartitionedCall/predict/resnet_v2_50/block1/unit_1/bottleneck_v2/preact/Relu", "Func/StatefulPartitionedCall/sequential_6/Resnet50/StatefulPartitionedCall/StatefulPartitionedCall/StatefulPartitionedCall/input/_833", "Func/StatefulPartitionedCall/sequential_6/Resnet50/StatefulPartitionedCall/StatefulPartitionedCall/StatefulPartitionedCall/input/_834"], "device": "/device:CPU:0", "attr": {"data_format": {"s": "TkhXQw=="}, "fused_ops": {"list": {"s": ["Qmlhc0FkZA=="]}}, "epsilon": {"f": 0.0}, "dilations": {"list": {"i": ["1", "1", "1", "1"]}}, "padding": {"s": "U0FNRQ=="}, "strides": {"list": {"i": ["1", "1", "1", "1"]}}, "T": {"type": "DT_FLOAT"}, "num_args": {"i": "1"}, "use_cudnn_on_gpu": {"b": true}, "explicit_paddings": {"list": {}}}}, {"name": "StatefulPartitionedCall/sequential_6/Resnet50/StatefulPartitionedCall/StatefulPartitionedCall/StatefulPartitionedCall/predict/resnet_v2_50/block1/unit_1/bottleneck_v2/conv1/Relu", "op": "_FusedConv2D", "input": ["StatefulPartitionedCall/sequential_6/Resnet50/StatefulPartitionedCall/StatefulPartitionedCall/StatefulPartitionedCall/predict/resnet_v2_50/block1/unit_1/bottleneck_v2/preact/Relu", "StatefulPartitionedCall/sequential_6/Resnet50/StatefulPartitionedCall/StatefulPartitionedCall/StatefulPartitionedCall/predict/resnet_v2_50/block1/unit_1/bottleneck_v2/conv1/Conv2D_weights", "StatefulPartitionedCall/sequential_6/Resnet50/StatefulPartitionedCall/StatefulPartitionedCall/StatefulPartitionedCall/predict/resnet_v2_50/block1/unit_1/bottleneck_v2/conv1/Conv2D_bn_offset"], "device": "/device:CPU:0", "attr": {"strides": {"list": {"i": ["1", "1", "1", "1"]}}, "data_format": {"s": "TkhXQw=="}, "epsilon": {"f": 0.0}, "dilations": {"list": {"i": ["1", "1", "1", "1"]}}, "explicit_paddings": {"list": {}}, "padding": {"s": "U0FNRQ=="}, "T": {"type": "DT_FLOAT"}, "fused_ops": {"list": {"s": ["Qmlhc0FkZA==", "UmVsdQ=="]}}, "num_args": {"i": "1"}, "use_cudnn_on_gpu": {"b": true}}}, {"name": "StatefulPartitionedCall/sequential_6/Resnet50/StatefulPartitionedCall/StatefulPartitionedCall/StatefulPartitionedCall/predict/resnet_v2_50/block1/unit_1/bottleneck_v2/conv2/Relu", "op": "_FusedConv2D", "input": ["StatefulPartitionedCall/sequential_6/Resnet50/StatefulPartitionedCall/StatefulPartitionedCall/StatefulPartitionedCall/predict/resnet_v2_50/block1/unit_1/bottleneck_v2/conv1/Relu", "StatefulPartitionedCall/sequential_6/Resnet50/StatefulPartitionedCall/StatefulPartitionedCall/StatefulPartitionedCall/predict/resnet_v2_50/block1/unit_1/bottleneck_v2/conv2/Conv2D_weights", "StatefulPartitionedCall/sequential_6/Resnet50/StatefulPartitionedCall/StatefulPartitionedCall/StatefulPartitionedCall/predict/resnet_v2_50/block1/unit_1/bottleneck_v2/conv2/Conv2D_bn_offset"], "device": "/device:CPU:0", "attr": {"epsilon": {"f": 0.0}, "padding": {"s": "U0FNRQ=="}, "strides": {"list": {"i": ["1", "1", "1", "1"]}}, "num_args": {"i": "1"}, "T": {"type": "DT_FLOAT"}, "fused_ops": {"list": {"s": ["Qmlhc0FkZA==", "UmVsdQ=="]}}, "dilations": {"list": {"i": ["1", "1", "1", "1"]}}, "explicit_paddings": {"list": {}}, "use_cudnn_on_gpu": {"b": true}, "data_format": {"s": "TkhXQw=="}}}, {"name": "StatefulPartitionedCall/sequential_6/Resnet50/StatefulPartitionedCall/StatefulPartitionedCall/StatefulPartitionedCall/predict/resnet_v2_50/block1/unit_1/bottleneck_v2/conv3/BiasAdd", "op": "_FusedConv2D", "input": ["StatefulPartitionedCall/sequential_6/Resnet50/StatefulPartitionedCall/StatefulPartitionedCall/StatefulPartitionedCall/predict/resnet_v2_50/block1/unit_1/bottleneck_v2/conv2/Relu", "Func/StatefulPartitionedCall/sequential_6/Resnet50/StatefulPartitionedCall/StatefulPartitionedCall/StatefulPartitionedCall/input/_845", "Func/StatefulPartitionedCall/sequential_6/Resnet50/StatefulPartitionedCall/StatefulPartitionedCall/StatefulPartitionedCall/input/_846"], "device": "/device:CPU:0", "attr": {"data_format": {"s": "TkhXQw=="}, "fused_ops": {"list": {"s": ["Qmlhc0FkZA=="]}}, "num_args": {"i": "1"}, "strides": {"list": {"i": ["1", "1", "1", "1"]}}, "explicit_paddings": {"list": {}}, "T": {"type": "DT_FLOAT"}, "padding": {"s": "U0FNRQ=="}, "epsilon": {"f": 0.0}, "use_cudnn_on_gpu": {"b": true}, "dilations": {"list": {"i": ["1", "1", "1", "1"]}}}}, {"name": "StatefulPartitionedCall/sequential_6/Resnet50/StatefulPartitionedCall/StatefulPartitionedCall/StatefulPartitionedCall/predict/resnet_v2_50/block1/unit_1/bottleneck_v2/add", "op": "AddV2", "input": ["StatefulPartitionedCall/sequential_6/Resnet50/StatefulPartitionedCall/StatefulPartitionedCall/StatefulPartitionedCall/predict/resnet_v2_50/block1/unit_1/bottleneck_v2/shortcut/BiasAdd", "StatefulPartitionedCall/sequential_6/Resnet50/StatefulPartitionedCall/StatefulPartitionedCall/StatefulPartitionedCall/predict/resnet_v2_50/block1/unit_1/bottleneck_v2/conv3/BiasAdd"], "attr": {"T": {"type": "DT_FLOAT"}}}, {"name": "StatefulPartitionedCall/sequential_6/Resnet50/StatefulPartitionedCall/StatefulPartitionedCall/StatefulPartitionedCall/predict/resnet_v2_50/block1/unit_2/bottleneck_v2/preact/FusedBatchNormV3/Mul", "op": "Mul", "input": ["StatefulPartitionedCall/sequential_6/Resnet50/StatefulPartitionedCall/StatefulPartitionedCall/StatefulPartitionedCall/predict/resnet_v2_50/block1/unit_1/bottleneck_v2/add", "StatefulPartitionedCall/sequential_6/Resnet50/StatefulPartitionedCall/StatefulPartitionedCall/StatefulPartitionedCall/predict/resnet_v2_50/block1/unit_2/bottleneck_v2/preact/FusedBatchNormV3/Scaled"], "attr": {"T": {"type": "DT_FLOAT"}}}, {"name": "StatefulPartitionedCall/sequential_6/Resnet50/StatefulPartitionedCall/StatefulPartitionedCall/StatefulPartitionedCall/predict/resnet_v2_50/block1/unit_2/bottleneck_v2/preact/FusedBatchNormV3", "op": "Add", "input": ["StatefulPartitionedCall/sequential_6/Resnet50/StatefulPartitionedCall/StatefulPartitionedCall/StatefulPartitionedCall/predict/resnet_v2_50/block1/unit_2/bottleneck_v2/preact/FusedBatchNormV3/Mul", "StatefulPartitionedCall/sequential_6/Resnet50/StatefulPartitionedCall/StatefulPartitionedCall/StatefulPartitionedCall/predict/resnet_v2_50/block1/unit_2/bottleneck_v2/preact/FusedBatchNormV3/Offset"], "attr": {"T": {"type": "DT_FLOAT"}}}, {"name": "StatefulPartitionedCall/sequential_6/Resnet50/StatefulPartitionedCall/StatefulPartitionedCall/StatefulPartitionedCall/predict/resnet_v2_50/block1/unit_2/bottleneck_v2/preact/Relu", "op": "Relu", "input": ["StatefulPartitionedCall/sequential_6/Resnet50/StatefulPartitionedCall/StatefulPartitionedCall/StatefulPartitionedCall/predict/resnet_v2_50/block1/unit_2/bottleneck_v2/preact/FusedBatchNormV3"], "attr": {"T": {"type": "DT_FLOAT"}}}, {"name": "StatefulPartitionedCall/sequential_6/Resnet50/StatefulPartitionedCall/StatefulPartitionedCall/StatefulPartitionedCall/predict/resnet_v2_50/block1/unit_2/bottleneck_v2/conv1/Relu", "op": "_FusedConv2D", "input": ["StatefulPartitionedCall/sequential_6/Resnet50/StatefulPartitionedCall/StatefulPartitionedCall/StatefulPartitionedCall/predict/resnet_v2_50/block1/unit_2/bottleneck_v2/preact/Relu", "StatefulPartitionedCall/sequential_6/Resnet50/StatefulPartitionedCall/StatefulPartitionedCall/StatefulPartitionedCall/predict/resnet_v2_50/block1/unit_2/bottleneck_v2/conv1/Conv2D_weights", "StatefulPartitionedCall/sequential_6/Resnet50/StatefulPartitionedCall/StatefulPartitionedCall/StatefulPartitionedCall/predict/resnet_v2_50/block1/unit_2/bottleneck_v2/conv1/Conv2D_bn_offset"], "device": "/device:CPU:0", "attr": {"fused_ops": {"list": {"s": ["Qmlhc0FkZA==", "UmVsdQ=="]}}, "padding": {"s": "U0FNRQ=="}, "explicit_paddings": {"list": {}}, "num_args": {"i": "1"}, "dilations": {"list": {"i": ["1", "1", "1", "1"]}}, "strides": {"list": {"i": ["1", "1", "1", "1"]}}, "data_format": {"s": "TkhXQw=="}, "use_cudnn_on_gpu": {"b": true}, "epsilon": {"f": 0.0}, "T": {"type": "DT_FLOAT"}}}, {"name": "StatefulPartitionedCall/sequential_6/Resnet50/StatefulPartitionedCall/StatefulPartitionedCall/StatefulPartitionedCall/predict/resnet_v2_50/block1/unit_2/bottleneck_v2/conv2/Relu", "op": "_FusedConv2D", "input": ["StatefulPartitionedCall/sequential_6/Resnet50/StatefulPartitionedCall/StatefulPartitionedCall/StatefulPartitionedCall/predict/resnet_v2_50/block1/unit_2/bottleneck_v2/conv1/Relu", "StatefulPartitionedCall/sequential_6/Resnet50/StatefulPartitionedCall/StatefulPartitionedCall/StatefulPartitionedCall/predict/resnet_v2_50/block1/unit_2/bottleneck_v2/conv2/Conv2D_weights", "StatefulPartitionedCall/sequential_6/Resnet50/StatefulPartitionedCall/StatefulPartitionedCall/StatefulPartitionedCall/predict/resnet_v2_50/block1/unit_2/bottleneck_v2/conv2/Conv2D_bn_offset"], "device": "/device:CPU:0", "attr": {"use_cudnn_on_gpu": {"b": true}, "data_format": {"s": "TkhXQw=="}, "explicit_paddings": {"list": {}}, "T": {"type": "DT_FLOAT"}, "fused_ops": {"list": {"s": ["Qmlhc0FkZA==", "UmVsdQ=="]}}, "epsilon": {"f": 0.0}, "strides": {"list": {"i": ["1", "1", "1", "1"]}}, "dilations": {"list": {"i": ["1", "1", "1", "1"]}}, "padding": {"s": "U0FNRQ=="}, "num_args": {"i": "1"}}}, {"name": "StatefulPartitionedCall/sequential_6/Resnet50/StatefulPartitionedCall/StatefulPartitionedCall/StatefulPartitionedCall/predict/resnet_v2_50/block1/unit_2/bottleneck_v2/conv3/BiasAdd", "op": "_FusedConv2D", "input": ["StatefulPartitionedCall/sequential_6/Resnet50/StatefulPartitionedCall/StatefulPartitionedCall/StatefulPartitionedCall/predict/resnet_v2_50/block1/unit_2/bottleneck_v2/conv2/Relu", "Func/StatefulPartitionedCall/sequential_6/Resnet50/StatefulPartitionedCall/StatefulPartitionedCall/StatefulPartitionedCall/input/_861", "Func/StatefulPartitionedCall/sequential_6/Resnet50/StatefulPartitionedCall/StatefulPartitionedCall/StatefulPartitionedCall/input/_862"], "device": "/device:CPU:0", "attr": {"fused_ops": {"list": {"s": ["Qmlhc0FkZA=="]}}, "strides": {"list": {"i": ["1", "1", "1", "1"]}}, "use_cudnn_on_gpu": {"b": true}, "T": {"type": "DT_FLOAT"}, "num_args": {"i": "1"}, "epsilon": {"f": 0.0}, "explicit_paddings": {"list": {}}, "dilations": {"list": {"i": ["1", "1", "1", "1"]}}, "padding": {"s": "U0FNRQ=="}, "data_format": {"s": "TkhXQw=="}}}, {"name": "StatefulPartitionedCall/sequential_6/Resnet50/StatefulPartitionedCall/StatefulPartitionedCall/StatefulPartitionedCall/predict/resnet_v2_50/block1/unit_2/bottleneck_v2/add", "op": "AddV2", "input": ["StatefulPartitionedCall/sequential_6/Resnet50/StatefulPartitionedCall/StatefulPartitionedCall/StatefulPartitionedCall/predict/resnet_v2_50/block1/unit_1/bottleneck_v2/add", "StatefulPartitionedCall/sequential_6/Resnet50/StatefulPartitionedCall/StatefulPartitionedCall/StatefulPartitionedCall/predict/resnet_v2_50/block1/unit_2/bottleneck_v2/conv3/BiasAdd"], "attr": {"T": {"type": "DT_FLOAT"}}}, {"name": "StatefulPartitionedCall/sequential_6/Resnet50/StatefulPartitionedCall/StatefulPartitionedCall/StatefulPartitionedCall/predict/resnet_v2_50/block1/unit_3/bottleneck_v2/shortcut/MaxPool", "op": "MaxPool", "input": ["StatefulPartitionedCall/sequential_6/Resnet50/StatefulPartitionedCall/StatefulPartitionedCall/StatefulPartitionedCall/predict/resnet_v2_50/block1/unit_2/bottleneck_v2/add"], "attr": {"padding": {"s": "U0FNRQ=="}, "T": {"type": "DT_FLOAT"}, "explicit_paddings": {"list": {}}, "data_format": {"s": "TkhXQw=="}, "strides": {"list": {"i": ["1", "2", "2", "1"]}}, "ksize": {"list": {"i": ["1", "1", "1", "1"]}}}}, {"name": "StatefulPartitionedCall/sequential_6/Resnet50/StatefulPartitionedCall/StatefulPartitionedCall/StatefulPartitionedCall/predict/resnet_v2_50/block1/unit_3/bottleneck_v2/preact/FusedBatchNormV3/Mul", "op": "Mul", "input": ["StatefulPartitionedCall/sequential_6/Resnet50/StatefulPartitionedCall/StatefulPartitionedCall/StatefulPartitionedCall/predict/resnet_v2_50/block1/unit_2/bottleneck_v2/add", "StatefulPartitionedCall/sequential_6/Resnet50/StatefulPartitionedCall/StatefulPartitionedCall/StatefulPartitionedCall/predict/resnet_v2_50/block1/unit_3/bottleneck_v2/preact/FusedBatchNormV3/Scaled"], "attr": {"T": {"type": "DT_FLOAT"}}}, {"name": "StatefulPartitionedCall/sequential_6/Resnet50/StatefulPartitionedCall/StatefulPartitionedCall/StatefulPartitionedCall/predict/resnet_v2_50/block1/unit_3/bottleneck_v2/preact/FusedBatchNormV3", "op": "Add", "input": ["StatefulPartitionedCall/sequential_6/Resnet50/StatefulPartitionedCall/StatefulPartitionedCall/StatefulPartitionedCall/predict/resnet_v2_50/block1/unit_3/bottleneck_v2/preact/FusedBatchNormV3/Mul", "StatefulPartitionedCall/sequential_6/Resnet50/StatefulPartitionedCall/StatefulPartitionedCall/StatefulPartitionedCall/predict/resnet_v2_50/block1/unit_3/bottleneck_v2/preact/FusedBatchNormV3/Offset"], "attr": {"T": {"type": "DT_FLOAT"}}}, {"name": "StatefulPartitionedCall/sequential_6/Resnet50/StatefulPartitionedCall/StatefulPartitionedCall/StatefulPartitionedCall/predict/resnet_v2_50/block1/unit_3/bottleneck_v2/preact/Relu", "op": "Relu", "input": ["StatefulPartitionedCall/sequential_6/Resnet50/StatefulPartitionedCall/StatefulPartitionedCall/StatefulPartitionedCall/predict/resnet_v2_50/block1/unit_3/bottleneck_v2/preact/FusedBatchNormV3"], "attr": {"T": {"type": "DT_FLOAT"}}}, {"name": "StatefulPartitionedCall/sequential_6/Resnet50/StatefulPartitionedCall/StatefulPartitionedCall/StatefulPartitionedCall/predict/resnet_v2_50/block1/unit_3/bottleneck_v2/conv1/Relu", "op": "_FusedConv2D", "input": ["StatefulPartitionedCall/sequential_6/Resnet50/StatefulPartitionedCall/StatefulPartitionedCall/StatefulPartitionedCall/predict/resnet_v2_50/block1/unit_3/bottleneck_v2/preact/Relu", "StatefulPartitionedCall/sequential_6/Resnet50/StatefulPartitionedCall/StatefulPartitionedCall/StatefulPartitionedCall/predict/resnet_v2_50/block1/unit_3/bottleneck_v2/conv1/Conv2D_weights", "StatefulPartitionedCall/sequential_6/Resnet50/StatefulPartitionedCall/StatefulPartitionedCall/StatefulPartitionedCall/predict/resnet_v2_50/block1/unit_3/bottleneck_v2/conv1/Conv2D_bn_offset"], "device": "/device:CPU:0", "attr": {"epsilon": {"f": 0.0}, "fused_ops": {"list": {"s": ["Qmlhc0FkZA==", "UmVsdQ=="]}}, "padding": {"s": "U0FNRQ=="}, "num_args": {"i": "1"}, "T": {"type": "DT_FLOAT"}, "explicit_paddings": {"list": {}}, "dilations": {"list": {"i": ["1", "1", "1", "1"]}}, "use_cudnn_on_gpu": {"b": true}, "data_format": {"s": "TkhXQw=="}, "strides": {"list": {"i": ["1", "1", "1", "1"]}}}}, {"name": "StatefulPartitionedCall/sequential_6/Resnet50/StatefulPartitionedCall/StatefulPartitionedCall/StatefulPartitionedCall/predict/resnet_v2_50/block1/unit_3/bottleneck_v2/Pad", "op": "Pad", "input": ["StatefulPartitionedCall/sequential_6/Resnet50/StatefulPartitionedCall/StatefulPartitionedCall/StatefulPartitionedCall/predict/resnet_v2_50/block1/unit_3/bottleneck_v2/conv1/Relu", "StatefulPartitionedCall/sequential_6/Resnet50/StatefulPartitionedCall/StatefulPartitionedCall/StatefulPartitionedCall/predict/resnet_v2_50/block1/unit_3/bottleneck_v2/Pad/paddings"], "attr": {"Tpaddings": {"type": "DT_INT32"}, "T": {"type": "DT_FLOAT"}}}, {"name": "StatefulPartitionedCall/sequential_6/Resnet50/StatefulPartitionedCall/StatefulPartitionedCall/StatefulPartitionedCall/predict/resnet_v2_50/block1/unit_3/bottleneck_v2/conv2/Relu", "op": "_FusedConv2D", "input": ["StatefulPartitionedCall/sequential_6/Resnet50/StatefulPartitionedCall/StatefulPartitionedCall/StatefulPartitionedCall/predict/resnet_v2_50/block1/unit_3/bottleneck_v2/Pad", "StatefulPartitionedCall/sequential_6/Resnet50/StatefulPartitionedCall/StatefulPartitionedCall/StatefulPartitionedCall/predict/resnet_v2_50/block1/unit_3/bottleneck_v2/conv2/Conv2D_weights", "StatefulPartitionedCall/sequential_6/Resnet50/StatefulPartitionedCall/StatefulPartitionedCall/StatefulPartitionedCall/predict/resnet_v2_50/block1/unit_3/bottleneck_v2/conv2/Conv2D_bn_offset"], "device": "/device:CPU:0", "attr": {"fused_ops": {"list": {"s": ["Qmlhc0FkZA==", "UmVsdQ=="]}}, "epsilon": {"f": 0.0}, "T": {"type": "DT_FLOAT"}, "data_format": {"s": "TkhXQw=="}, "explicit_paddings": {"list": {}}, "strides": {"list": {"i": ["1", "2", "2", "1"]}}, "dilations": {"list": {"i": ["1", "1", "1", "1"]}}, "num_args": {"i": "1"}, "use_cudnn_on_gpu": {"b": true}, "padding": {"s": "VkFMSUQ="}}}, {"name": "StatefulPartitionedCall/sequential_6/Resnet50/StatefulPartitionedCall/StatefulPartitionedCall/StatefulPartitionedCall/predict/resnet_v2_50/block1/unit_3/bottleneck_v2/conv3/BiasAdd", "op": "_FusedConv2D", "input": ["StatefulPartitionedCall/sequential_6/Resnet50/StatefulPartitionedCall/StatefulPartitionedCall/StatefulPartitionedCall/predict/resnet_v2_50/block1/unit_3/bottleneck_v2/conv2/Relu", "Func/StatefulPartitionedCall/sequential_6/Resnet50/StatefulPartitionedCall/StatefulPartitionedCall/StatefulPartitionedCall/input/_877", "Func/StatefulPartitionedCall/sequential_6/Resnet50/StatefulPartitionedCall/StatefulPartitionedCall/StatefulPartitionedCall/input/_878"], "device": "/device:CPU:0", "attr": {"T": {"type": "DT_FLOAT"}, "epsilon": {"f": 0.0}, "explicit_paddings": {"list": {}}, "data_format": {"s": "TkhXQw=="}, "fused_ops": {"list": {"s": ["Qmlhc0FkZA=="]}}, "use_cudnn_on_gpu": {"b": true}, "num_args": {"i": "1"}, "dilations": {"list": {"i": ["1", "1", "1", "1"]}}, "strides": {"list": {"i": ["1", "1", "1", "1"]}}, "padding": {"s": "U0FNRQ=="}}}, {"name": "StatefulPartitionedCall/sequential_6/Resnet50/StatefulPartitionedCall/StatefulPartitionedCall/StatefulPartitionedCall/predict/resnet_v2_50/block1/unit_3/bottleneck_v2/add", "op": "AddV2", "input": ["StatefulPartitionedCall/sequential_6/Resnet50/StatefulPartitionedCall/StatefulPartitionedCall/StatefulPartitionedCall/predict/resnet_v2_50/block1/unit_3/bottleneck_v2/shortcut/MaxPool", "StatefulPartitionedCall/sequential_6/Resnet50/StatefulPartitionedCall/StatefulPartitionedCall/StatefulPartitionedCall/predict/resnet_v2_50/block1/unit_3/bottleneck_v2/conv3/BiasAdd"], "attr": {"T": {"type": "DT_FLOAT"}}}, {"name": "StatefulPartitionedCall/sequential_6/Resnet50/StatefulPartitionedCall/StatefulPartitionedCall/StatefulPartitionedCall/predict/resnet_v2_50/block2/unit_1/bottleneck_v2/preact/FusedBatchNormV3/Mul", "op": "Mul", "input": ["StatefulPartitionedCall/sequential_6/Resnet50/StatefulPartitionedCall/StatefulPartitionedCall/StatefulPartitionedCall/predict/resnet_v2_50/block1/unit_3/bottleneck_v2/add", "StatefulPartitionedCall/sequential_6/Resnet50/StatefulPartitionedCall/StatefulPartitionedCall/StatefulPartitionedCall/predict/resnet_v2_50/block2/unit_1/bottleneck_v2/preact/FusedBatchNormV3/Scaled"], "attr": {"T": {"type": "DT_FLOAT"}}}, {"name": "StatefulPartitionedCall/sequential_6/Resnet50/StatefulPartitionedCall/StatefulPartitionedCall/StatefulPartitionedCall/predict/resnet_v2_50/block2/unit_1/bottleneck_v2/preact/FusedBatchNormV3", "op": "Add", "input": ["StatefulPartitionedCall/sequential_6/Resnet50/StatefulPartitionedCall/StatefulPartitionedCall/StatefulPartitionedCall/predict/resnet_v2_50/block2/unit_1/bottleneck_v2/preact/FusedBatchNormV3/Mul", "StatefulPartitionedCall/sequential_6/Resnet50/StatefulPartitionedCall/StatefulPartitionedCall/StatefulPartitionedCall/predict/resnet_v2_50/block2/unit_1/bottleneck_v2/preact/FusedBatchNormV3/Offset"], "attr": {"T": {"type": "DT_FLOAT"}}}, {"name": "StatefulPartitionedCall/sequential_6/Resnet50/StatefulPartitionedCall/StatefulPartitionedCall/StatefulPartitionedCall/predict/resnet_v2_50/block2/unit_1/bottleneck_v2/preact/Relu", "op": "Relu", "input": ["StatefulPartitionedCall/sequential_6/Resnet50/StatefulPartitionedCall/StatefulPartitionedCall/StatefulPartitionedCall/predict/resnet_v2_50/block2/unit_1/bottleneck_v2/preact/FusedBatchNormV3"], "attr": {"T": {"type": "DT_FLOAT"}}}, {"name": "StatefulPartitionedCall/sequential_6/Resnet50/StatefulPartitionedCall/StatefulPartitionedCall/StatefulPartitionedCall/predict/resnet_v2_50/block2/unit_1/bottleneck_v2/shortcut/BiasAdd", "op": "_FusedConv2D", "input": ["StatefulPartitionedCall/sequential_6/Resnet50/StatefulPartitionedCall/StatefulPartitionedCall/StatefulPartitionedCall/predict/resnet_v2_50/block2/unit_1/bottleneck_v2/preact/Relu", "Func/StatefulPartitionedCall/sequential_6/Resnet50/StatefulPartitionedCall/StatefulPartitionedCall/StatefulPartitionedCall/input/_883", "Func/StatefulPartitionedCall/sequential_6/Resnet50/StatefulPartitionedCall/StatefulPartitionedCall/StatefulPartitionedCall/input/_884"], "device": "/device:CPU:0", "attr": {"explicit_paddings": {"list": {}}, "strides": {"list": {"i": ["1", "1", "1", "1"]}}, "T": {"type": "DT_FLOAT"}, "use_cudnn_on_gpu": {"b": true}, "dilations": {"list": {"i": ["1", "1", "1", "1"]}}, "data_format": {"s": "TkhXQw=="}, "num_args": {"i": "1"}, "padding": {"s": "U0FNRQ=="}, "fused_ops": {"list": {"s": ["Qmlhc0FkZA=="]}}, "epsilon": {"f": 0.0}}}, {"name": "StatefulPartitionedCall/sequential_6/Resnet50/StatefulPartitionedCall/StatefulPartitionedCall/StatefulPartitionedCall/predict/resnet_v2_50/block2/unit_1/bottleneck_v2/conv1/Relu", "op": "_FusedConv2D", "input": ["StatefulPartitionedCall/sequential_6/Resnet50/StatefulPartitionedCall/StatefulPartitionedCall/StatefulPartitionedCall/predict/resnet_v2_50/block2/unit_1/bottleneck_v2/preact/Relu", "StatefulPartitionedCall/sequential_6/Resnet50/StatefulPartitionedCall/StatefulPartitionedCall/StatefulPartitionedCall/predict/resnet_v2_50/block2/unit_1/bottleneck_v2/conv1/Conv2D_weights", "StatefulPartitionedCall/sequential_6/Resnet50/StatefulPartitionedCall/StatefulPartitionedCall/StatefulPartitionedCall/predict/resnet_v2_50/block2/unit_1/bottleneck_v2/conv1/Conv2D_bn_offset"], "device": "/device:CPU:0", "attr": {"fused_ops": {"list": {"s": ["Qmlhc0FkZA==", "UmVsdQ=="]}}, "epsilon": {"f": 0.0}, "T": {"type": "DT_FLOAT"}, "padding": {"s": "U0FNRQ=="}, "strides": {"list": {"i": ["1", "1", "1", "1"]}}, "num_args": {"i": "1"}, "use_cudnn_on_gpu": {"b": true}, "explicit_paddings": {"list": {}}, "data_format": {"s": "TkhXQw=="}, "dilations": {"list": {"i": ["1", "1", "1", "1"]}}}}, {"name": "StatefulPartitionedCall/sequential_6/Resnet50/StatefulPartitionedCall/StatefulPartitionedCall/StatefulPartitionedCall/predict/resnet_v2_50/block2/unit_1/bottleneck_v2/conv2/Relu", "op": "_FusedConv2D", "input": ["StatefulPartitionedCall/sequential_6/Resnet50/StatefulPartitionedCall/StatefulPartitionedCall/StatefulPartitionedCall/predict/resnet_v2_50/block2/unit_1/bottleneck_v2/conv1/Relu", "StatefulPartitionedCall/sequential_6/Resnet50/StatefulPartitionedCall/StatefulPartitionedCall/StatefulPartitionedCall/predict/resnet_v2_50/block2/unit_1/bottleneck_v2/conv2/Conv2D_weights", "StatefulPartitionedCall/sequential_6/Resnet50/StatefulPartitionedCall/StatefulPartitionedCall/StatefulPartitionedCall/predict/resnet_v2_50/block2/unit_1/bottleneck_v2/conv2/Conv2D_bn_offset"], "device": "/device:CPU:0", "attr": {"num_args": {"i": "1"}, "data_format": {"s": "TkhXQw=="}, "explicit_paddings": {"list": {}}, "padding": {"s": "U0FNRQ=="}, "strides": {"list": {"i": ["1", "1", "1", "1"]}}, "T": {"type": "DT_FLOAT"}, "fused_ops": {"list": {"s": ["Qmlhc0FkZA==", "UmVsdQ=="]}}, "use_cudnn_on_gpu": {"b": true}, "epsilon": {"f": 0.0}, "dilations": {"list": {"i": ["1", "1", "1", "1"]}}}}, {"name": "StatefulPartitionedCall/sequential_6/Resnet50/StatefulPartitionedCall/StatefulPartitionedCall/StatefulPartitionedCall/predict/resnet_v2_50/block2/unit_1/bottleneck_v2/conv3/BiasAdd", "op": "_FusedConv2D", "input": ["StatefulPartitionedCall/sequential_6/Resnet50/StatefulPartitionedCall/StatefulPartitionedCall/StatefulPartitionedCall/predict/resnet_v2_50/block2/unit_1/bottleneck_v2/conv2/Relu", "Func/StatefulPartitionedCall/sequential_6/Resnet50/StatefulPartitionedCall/StatefulPartitionedCall/StatefulPartitionedCall/input/_895", "Func/StatefulPartitionedCall/sequential_6/Resnet50/StatefulPartitionedCall/StatefulPartitionedCall/StatefulPartitionedCall/input/_896"], "device": "/device:CPU:0", "attr": {"padding": {"s": "U0FNRQ=="}, "fused_ops": {"list": {"s": ["Qmlhc0FkZA=="]}}, "data_format": {"s": "TkhXQw=="}, "num_args": {"i": "1"}, "explicit_paddings": {"list": {}}, "dilations": {"list": {"i": ["1", "1", "1", "1"]}}, "strides": {"list": {"i": ["1", "1", "1", "1"]}}, "epsilon": {"f": 0.0}, "T": {"type": "DT_FLOAT"}, "use_cudnn_on_gpu": {"b": true}}}, {"name": "StatefulPartitionedCall/sequential_6/Resnet50/StatefulPartitionedCall/StatefulPartitionedCall/StatefulPartitionedCall/predict/resnet_v2_50/block2/unit_1/bottleneck_v2/add", "op": "AddV2", "input": ["StatefulPartitionedCall/sequential_6/Resnet50/StatefulPartitionedCall/StatefulPartitionedCall/StatefulPartitionedCall/predict/resnet_v2_50/block2/unit_1/bottleneck_v2/shortcut/BiasAdd", "StatefulPartitionedCall/sequential_6/Resnet50/StatefulPartitionedCall/StatefulPartitionedCall/StatefulPartitionedCall/predict/resnet_v2_50/block2/unit_1/bottleneck_v2/conv3/BiasAdd"], "attr": {"T": {"type": "DT_FLOAT"}}}, {"name": "StatefulPartitionedCall/sequential_6/Resnet50/StatefulPartitionedCall/StatefulPartitionedCall/StatefulPartitionedCall/predict/resnet_v2_50/block2/unit_2/bottleneck_v2/preact/FusedBatchNormV3/Mul", "op": "Mul", "input": ["StatefulPartitionedCall/sequential_6/Resnet50/StatefulPartitionedCall/StatefulPartitionedCall/StatefulPartitionedCall/predict/resnet_v2_50/block2/unit_1/bottleneck_v2/add", "StatefulPartitionedCall/sequential_6/Resnet50/StatefulPartitionedCall/StatefulPartitionedCall/StatefulPartitionedCall/predict/resnet_v2_50/block2/unit_2/bottleneck_v2/preact/FusedBatchNormV3/Scaled"], "attr": {"T": {"type": "DT_FLOAT"}}}, {"name": "StatefulPartitionedCall/sequential_6/Resnet50/StatefulPartitionedCall/StatefulPartitionedCall/StatefulPartitionedCall/predict/resnet_v2_50/block2/unit_2/bottleneck_v2/preact/FusedBatchNormV3", "op": "Add", "input": ["StatefulPartitionedCall/sequential_6/Resnet50/StatefulPartitionedCall/StatefulPartitionedCall/StatefulPartitionedCall/predict/resnet_v2_50/block2/unit_2/bottleneck_v2/preact/FusedBatchNormV3/Mul", "StatefulPartitionedCall/sequential_6/Resnet50/StatefulPartitionedCall/StatefulPartitionedCall/StatefulPartitionedCall/predict/resnet_v2_50/block2/unit_2/bottleneck_v2/preact/FusedBatchNormV3/Offset"], "attr": {"T": {"type": "DT_FLOAT"}}}, {"name": "StatefulPartitionedCall/sequential_6/Resnet50/StatefulPartitionedCall/StatefulPartitionedCall/StatefulPartitionedCall/predict/resnet_v2_50/block2/unit_2/bottleneck_v2/preact/Relu", "op": "Relu", "input": ["StatefulPartitionedCall/sequential_6/Resnet50/StatefulPartitionedCall/StatefulPartitionedCall/StatefulPartitionedCall/predict/resnet_v2_50/block2/unit_2/bottleneck_v2/preact/FusedBatchNormV3"], "attr": {"T": {"type": "DT_FLOAT"}}}, {"name": "StatefulPartitionedCall/sequential_6/Resnet50/StatefulPartitionedCall/StatefulPartitionedCall/StatefulPartitionedCall/predict/resnet_v2_50/block2/unit_2/bottleneck_v2/conv1/Relu", "op": "_FusedConv2D", "input": ["StatefulPartitionedCall/sequential_6/Resnet50/StatefulPartitionedCall/StatefulPartitionedCall/StatefulPartitionedCall/predict/resnet_v2_50/block2/unit_2/bottleneck_v2/preact/Relu", "StatefulPartitionedCall/sequential_6/Resnet50/StatefulPartitionedCall/StatefulPartitionedCall/StatefulPartitionedCall/predict/resnet_v2_50/block2/unit_2/bottleneck_v2/conv1/Conv2D_weights", "StatefulPartitionedCall/sequential_6/Resnet50/StatefulPartitionedCall/StatefulPartitionedCall/StatefulPartitionedCall/predict/resnet_v2_50/block2/unit_2/bottleneck_v2/conv1/Conv2D_bn_offset"], "device": "/device:CPU:0", "attr": {"fused_ops": {"list": {"s": ["Qmlhc0FkZA==", "UmVsdQ=="]}}, "padding": {"s": "U0FNRQ=="}, "data_format": {"s": "TkhXQw=="}, "num_args": {"i": "1"}, "dilations": {"list": {"i": ["1", "1", "1", "1"]}}, "epsilon": {"f": 0.0}, "T": {"type": "DT_FLOAT"}, "use_cudnn_on_gpu": {"b": true}, "explicit_paddings": {"list": {}}, "strides": {"list": {"i": ["1", "1", "1", "1"]}}}}, {"name": "StatefulPartitionedCall/sequential_6/Resnet50/StatefulPartitionedCall/StatefulPartitionedCall/StatefulPartitionedCall/predict/resnet_v2_50/block2/unit_2/bottleneck_v2/conv2/Relu", "op": "_FusedConv2D", "input": ["StatefulPartitionedCall/sequential_6/Resnet50/StatefulPartitionedCall/StatefulPartitionedCall/StatefulPartitionedCall/predict/resnet_v2_50/block2/unit_2/bottleneck_v2/conv1/Relu", "StatefulPartitionedCall/sequential_6/Resnet50/StatefulPartitionedCall/StatefulPartitionedCall/StatefulPartitionedCall/predict/resnet_v2_50/block2/unit_2/bottleneck_v2/conv2/Conv2D_weights", "StatefulPartitionedCall/sequential_6/Resnet50/StatefulPartitionedCall/StatefulPartitionedCall/StatefulPartitionedCall/predict/resnet_v2_50/block2/unit_2/bottleneck_v2/conv2/Conv2D_bn_offset"], "device": "/device:CPU:0", "attr": {"dilations": {"list": {"i": ["1", "1", "1", "1"]}}, "padding": {"s": "U0FNRQ=="}, "strides": {"list": {"i": ["1", "1", "1", "1"]}}, "explicit_paddings": {"list": {}}, "use_cudnn_on_gpu": {"b": true}, "num_args": {"i": "1"}, "T": {"type": "DT_FLOAT"}, "epsilon": {"f": 0.0}, "data_format": {"s": "TkhXQw=="}, "fused_ops": {"list": {"s": ["Qmlhc0FkZA==", "UmVsdQ=="]}}}}, {"name": "StatefulPartitionedCall/sequential_6/Resnet50/StatefulPartitionedCall/StatefulPartitionedCall/StatefulPartitionedCall/predict/resnet_v2_50/block2/unit_2/bottleneck_v2/conv3/BiasAdd", "op": "_FusedConv2D", "input": ["StatefulPartitionedCall/sequential_6/Resnet50/StatefulPartitionedCall/StatefulPartitionedCall/StatefulPartitionedCall/predict/resnet_v2_50/block2/unit_2/bottleneck_v2/conv2/Relu", "Func/StatefulPartitionedCall/sequential_6/Resnet50/StatefulPartitionedCall/StatefulPartitionedCall/StatefulPartitionedCall/input/_911", "Func/StatefulPartitionedCall/sequential_6/Resnet50/StatefulPartitionedCall/StatefulPartitionedCall/StatefulPartitionedCall/input/_912"], "device": "/device:CPU:0", "attr": {"fused_ops": {"list": {"s": ["Qmlhc0FkZA=="]}}, "explicit_paddings": {"list": {}}, "num_args": {"i": "1"}, "epsilon": {"f": 0.0}, "padding": {"s": "U0FNRQ=="}, "data_format": {"s": "TkhXQw=="}, "use_cudnn_on_gpu": {"b": true}, "dilations": {"list": {"i": ["1", "1", "1", "1"]}}, "T": {"type": "DT_FLOAT"}, "strides": {"list": {"i": ["1", "1", "1", "1"]}}}}, {"name": "StatefulPartitionedCall/sequential_6/Resnet50/StatefulPartitionedCall/StatefulPartitionedCall/StatefulPartitionedCall/predict/resnet_v2_50/block2/unit_2/bottleneck_v2/add", "op": "AddV2", "input": ["StatefulPartitionedCall/sequential_6/Resnet50/StatefulPartitionedCall/StatefulPartitionedCall/StatefulPartitionedCall/predict/resnet_v2_50/block2/unit_1/bottleneck_v2/add", "StatefulPartitionedCall/sequential_6/Resnet50/StatefulPartitionedCall/StatefulPartitionedCall/StatefulPartitionedCall/predict/resnet_v2_50/block2/unit_2/bottleneck_v2/conv3/BiasAdd"], "attr": {"T": {"type": "DT_FLOAT"}}}, {"name": "StatefulPartitionedCall/sequential_6/Resnet50/StatefulPartitionedCall/StatefulPartitionedCall/StatefulPartitionedCall/predict/resnet_v2_50/block2/unit_3/bottleneck_v2/preact/FusedBatchNormV3/Mul", "op": "Mul", "input": ["StatefulPartitionedCall/sequential_6/Resnet50/StatefulPartitionedCall/StatefulPartitionedCall/StatefulPartitionedCall/predict/resnet_v2_50/block2/unit_2/bottleneck_v2/add", "StatefulPartitionedCall/sequential_6/Resnet50/StatefulPartitionedCall/StatefulPartitionedCall/StatefulPartitionedCall/predict/resnet_v2_50/block2/unit_3/bottleneck_v2/preact/FusedBatchNormV3/Scaled"], "attr": {"T": {"type": "DT_FLOAT"}}}, {"name": "StatefulPartitionedCall/sequential_6/Resnet50/StatefulPartitionedCall/StatefulPartitionedCall/StatefulPartitionedCall/predict/resnet_v2_50/block2/unit_3/bottleneck_v2/preact/FusedBatchNormV3", "op": "Add", "input": ["StatefulPartitionedCall/sequential_6/Resnet50/StatefulPartitionedCall/StatefulPartitionedCall/StatefulPartitionedCall/predict/resnet_v2_50/block2/unit_3/bottleneck_v2/preact/FusedBatchNormV3/Mul", "StatefulPartitionedCall/sequential_6/Resnet50/StatefulPartitionedCall/StatefulPartitionedCall/StatefulPartitionedCall/predict/resnet_v2_50/block2/unit_3/bottleneck_v2/preact/FusedBatchNormV3/Offset"], "attr": {"T": {"type": "DT_FLOAT"}}}, {"name": "StatefulPartitionedCall/sequential_6/Resnet50/StatefulPartitionedCall/StatefulPartitionedCall/StatefulPartitionedCall/predict/resnet_v2_50/block2/unit_3/bottleneck_v2/preact/Relu", "op": "Relu", "input": ["StatefulPartitionedCall/sequential_6/Resnet50/StatefulPartitionedCall/StatefulPartitionedCall/StatefulPartitionedCall/predict/resnet_v2_50/block2/unit_3/bottleneck_v2/preact/FusedBatchNormV3"], "attr": {"T": {"type": "DT_FLOAT"}}}, {"name": "StatefulPartitionedCall/sequential_6/Resnet50/StatefulPartitionedCall/StatefulPartitionedCall/StatefulPartitionedCall/predict/resnet_v2_50/block2/unit_3/bottleneck_v2/conv1/Relu", "op": "_FusedConv2D", "input": ["StatefulPartitionedCall/sequential_6/Resnet50/StatefulPartitionedCall/StatefulPartitionedCall/StatefulPartitionedCall/predict/resnet_v2_50/block2/unit_3/bottleneck_v2/preact/Relu", "StatefulPartitionedCall/sequential_6/Resnet50/StatefulPartitionedCall/StatefulPartitionedCall/StatefulPartitionedCall/predict/resnet_v2_50/block2/unit_3/bottleneck_v2/conv1/Conv2D_weights", "StatefulPartitionedCall/sequential_6/Resnet50/StatefulPartitionedCall/StatefulPartitionedCall/StatefulPartitionedCall/predict/resnet_v2_50/block2/unit_3/bottleneck_v2/conv1/Conv2D_bn_offset"], "device": "/device:CPU:0", "attr": {"strides": {"list": {"i": ["1", "1", "1", "1"]}}, "data_format": {"s": "TkhXQw=="}, "padding": {"s": "U0FNRQ=="}, "fused_ops": {"list": {"s": ["Qmlhc0FkZA==", "UmVsdQ=="]}}, "T": {"type": "DT_FLOAT"}, "explicit_paddings": {"list": {}}, "use_cudnn_on_gpu": {"b": true}, "num_args": {"i": "1"}, "epsilon": {"f": 0.0}, "dilations": {"list": {"i": ["1", "1", "1", "1"]}}}}, {"name": "StatefulPartitionedCall/sequential_6/Resnet50/StatefulPartitionedCall/StatefulPartitionedCall/StatefulPartitionedCall/predict/resnet_v2_50/block2/unit_3/bottleneck_v2/conv2/Relu", "op": "_FusedConv2D", "input": ["StatefulPartitionedCall/sequential_6/Resnet50/StatefulPartitionedCall/StatefulPartitionedCall/StatefulPartitionedCall/predict/resnet_v2_50/block2/unit_3/bottleneck_v2/conv1/Relu", "StatefulPartitionedCall/sequential_6/Resnet50/StatefulPartitionedCall/StatefulPartitionedCall/StatefulPartitionedCall/predict/resnet_v2_50/block2/unit_3/bottleneck_v2/conv2/Conv2D_weights", "StatefulPartitionedCall/sequential_6/Resnet50/StatefulPartitionedCall/StatefulPartitionedCall/StatefulPartitionedCall/predict/resnet_v2_50/block2/unit_3/bottleneck_v2/conv2/Conv2D_bn_offset"], "device": "/device:CPU:0", "attr": {"strides": {"list": {"i": ["1", "1", "1", "1"]}}, "dilations": {"list": {"i": ["1", "1", "1", "1"]}}, "data_format": {"s": "TkhXQw=="}, "padding": {"s": "U0FNRQ=="}, "T": {"type": "DT_FLOAT"}, "epsilon": {"f": 0.0}, "fused_ops": {"list": {"s": ["Qmlhc0FkZA==", "UmVsdQ=="]}}, "num_args": {"i": "1"}, "explicit_paddings": {"list": {}}, "use_cudnn_on_gpu": {"b": true}}}, {"name": "StatefulPartitionedCall/sequential_6/Resnet50/StatefulPartitionedCall/StatefulPartitionedCall/StatefulPartitionedCall/predict/resnet_v2_50/block2/unit_3/bottleneck_v2/conv3/BiasAdd", "op": "_FusedConv2D", "input": ["StatefulPartitionedCall/sequential_6/Resnet50/StatefulPartitionedCall/StatefulPartitionedCall/StatefulPartitionedCall/predict/resnet_v2_50/block2/unit_3/bottleneck_v2/conv2/Relu", "Func/StatefulPartitionedCall/sequential_6/Resnet50/StatefulPartitionedCall/StatefulPartitionedCall/StatefulPartitionedCall/input/_927", "Func/StatefulPartitionedCall/sequential_6/Resnet50/StatefulPartitionedCall/StatefulPartitionedCall/StatefulPartitionedCall/input/_928"], "device": "/device:CPU:0", "attr": {"strides": {"list": {"i": ["1", "1", "1", "1"]}}, "fused_ops": {"list": {"s": ["Qmlhc0FkZA=="]}}, "T": {"type": "DT_FLOAT"}, "data_format": {"s": "TkhXQw=="}, "explicit_paddings": {"list": {}}, "dilations": {"list": {"i": ["1", "1", "1", "1"]}}, "padding": {"s": "U0FNRQ=="}, "epsilon": {"f": 0.0}, "use_cudnn_on_gpu": {"b": true}, "num_args": {"i": "1"}}}, {"name": "StatefulPartitionedCall/sequential_6/Resnet50/StatefulPartitionedCall/StatefulPartitionedCall/StatefulPartitionedCall/predict/resnet_v2_50/block2/unit_3/bottleneck_v2/add", "op": "AddV2", "input": ["StatefulPartitionedCall/sequential_6/Resnet50/StatefulPartitionedCall/StatefulPartitionedCall/StatefulPartitionedCall/predict/resnet_v2_50/block2/unit_2/bottleneck_v2/add", "StatefulPartitionedCall/sequential_6/Resnet50/StatefulPartitionedCall/StatefulPartitionedCall/StatefulPartitionedCall/predict/resnet_v2_50/block2/unit_3/bottleneck_v2/conv3/BiasAdd"], "attr": {"T": {"type": "DT_FLOAT"}}}, {"name": "StatefulPartitionedCall/sequential_6/Resnet50/StatefulPartitionedCall/StatefulPartitionedCall/StatefulPartitionedCall/predict/resnet_v2_50/block2/unit_4/bottleneck_v2/shortcut/MaxPool", "op": "MaxPool", "input": ["StatefulPartitionedCall/sequential_6/Resnet50/StatefulPartitionedCall/StatefulPartitionedCall/StatefulPartitionedCall/predict/resnet_v2_50/block2/unit_3/bottleneck_v2/add"], "attr": {"T": {"type": "DT_FLOAT"}, "ksize": {"list": {"i": ["1", "1", "1", "1"]}}, "explicit_paddings": {"list": {}}, "strides": {"list": {"i": ["1", "2", "2", "1"]}}, "data_format": {"s": "TkhXQw=="}, "padding": {"s": "U0FNRQ=="}}}, {"name": "StatefulPartitionedCall/sequential_6/Resnet50/StatefulPartitionedCall/StatefulPartitionedCall/StatefulPartitionedCall/predict/resnet_v2_50/block2/unit_4/bottleneck_v2/preact/FusedBatchNormV3/Mul", "op": "Mul", "input": ["StatefulPartitionedCall/sequential_6/Resnet50/StatefulPartitionedCall/StatefulPartitionedCall/StatefulPartitionedCall/predict/resnet_v2_50/block2/unit_3/bottleneck_v2/add", "StatefulPartitionedCall/sequential_6/Resnet50/StatefulPartitionedCall/StatefulPartitionedCall/StatefulPartitionedCall/predict/resnet_v2_50/block2/unit_4/bottleneck_v2/preact/FusedBatchNormV3/Scaled"], "attr": {"T": {"type": "DT_FLOAT"}}}, {"name": "StatefulPartitionedCall/sequential_6/Resnet50/StatefulPartitionedCall/StatefulPartitionedCall/StatefulPartitionedCall/predict/resnet_v2_50/block2/unit_4/bottleneck_v2/preact/FusedBatchNormV3", "op": "Add", "input": ["StatefulPartitionedCall/sequential_6/Resnet50/StatefulPartitionedCall/StatefulPartitionedCall/StatefulPartitionedCall/predict/resnet_v2_50/block2/unit_4/bottleneck_v2/preact/FusedBatchNormV3/Mul", "StatefulPartitionedCall/sequential_6/Resnet50/StatefulPartitionedCall/StatefulPartitionedCall/StatefulPartitionedCall/predict/resnet_v2_50/block2/unit_4/bottleneck_v2/preact/FusedBatchNormV3/Offset"], "attr": {"T": {"type": "DT_FLOAT"}}}, {"name": "StatefulPartitionedCall/sequential_6/Resnet50/StatefulPartitionedCall/StatefulPartitionedCall/StatefulPartitionedCall/predict/resnet_v2_50/block2/unit_4/bottleneck_v2/preact/Relu", "op": "Relu", "input": ["StatefulPartitionedCall/sequential_6/Resnet50/StatefulPartitionedCall/StatefulPartitionedCall/StatefulPartitionedCall/predict/resnet_v2_50/block2/unit_4/bottleneck_v2/preact/FusedBatchNormV3"], "attr": {"T": {"type": "DT_FLOAT"}}}, {"name": "StatefulPartitionedCall/sequential_6/Resnet50/StatefulPartitionedCall/StatefulPartitionedCall/StatefulPartitionedCall/predict/resnet_v2_50/block2/unit_4/bottleneck_v2/conv1/Relu", "op": "_FusedConv2D", "input": ["StatefulPartitionedCall/sequential_6/Resnet50/StatefulPartitionedCall/StatefulPartitionedCall/StatefulPartitionedCall/predict/resnet_v2_50/block2/unit_4/bottleneck_v2/preact/Relu", "StatefulPartitionedCall/sequential_6/Resnet50/StatefulPartitionedCall/StatefulPartitionedCall/StatefulPartitionedCall/predict/resnet_v2_50/block2/unit_4/bottleneck_v2/conv1/Conv2D_weights", "StatefulPartitionedCall/sequential_6/Resnet50/StatefulPartitionedCall/StatefulPartitionedCall/StatefulPartitionedCall/predict/resnet_v2_50/block2/unit_4/bottleneck_v2/conv1/Conv2D_bn_offset"], "device": "/device:CPU:0", "attr": {"num_args": {"i": "1"}, "data_format": {"s": "TkhXQw=="}, "use_cudnn_on_gpu": {"b": true}, "strides": {"list": {"i": ["1", "1", "1", "1"]}}, "explicit_paddings": {"list": {}}, "dilations": {"list": {"i": ["1", "1", "1", "1"]}}, "T": {"type": "DT_FLOAT"}, "epsilon": {"f": 0.0}, "fused_ops": {"list": {"s": ["Qmlhc0FkZA==", "UmVsdQ=="]}}, "padding": {"s": "U0FNRQ=="}}}, {"name": "StatefulPartitionedCall/sequential_6/Resnet50/StatefulPartitionedCall/StatefulPartitionedCall/StatefulPartitionedCall/predict/resnet_v2_50/block2/unit_4/bottleneck_v2/Pad", "op": "Pad", "input": ["StatefulPartitionedCall/sequential_6/Resnet50/StatefulPartitionedCall/StatefulPartitionedCall/StatefulPartitionedCall/predict/resnet_v2_50/block2/unit_4/bottleneck_v2/conv1/Relu", "StatefulPartitionedCall/sequential_6/Resnet50/StatefulPartitionedCall/StatefulPartitionedCall/StatefulPartitionedCall/predict/resnet_v2_50/block2/unit_4/bottleneck_v2/Pad/paddings"], "attr": {"Tpaddings": {"type": "DT_INT32"}, "T": {"type": "DT_FLOAT"}}}, {"name": "StatefulPartitionedCall/sequential_6/Resnet50/StatefulPartitionedCall/StatefulPartitionedCall/StatefulPartitionedCall/predict/resnet_v2_50/block2/unit_4/bottleneck_v2/conv2/Relu", "op": "_FusedConv2D", "input": ["StatefulPartitionedCall/sequential_6/Resnet50/StatefulPartitionedCall/StatefulPartitionedCall/StatefulPartitionedCall/predict/resnet_v2_50/block2/unit_4/bottleneck_v2/Pad", "StatefulPartitionedCall/sequential_6/Resnet50/StatefulPartitionedCall/StatefulPartitionedCall/StatefulPartitionedCall/predict/resnet_v2_50/block2/unit_4/bottleneck_v2/conv2/Conv2D_weights", "StatefulPartitionedCall/sequential_6/Resnet50/StatefulPartitionedCall/StatefulPartitionedCall/StatefulPartitionedCall/predict/resnet_v2_50/block2/unit_4/bottleneck_v2/conv2/Conv2D_bn_offset"], "device": "/device:CPU:0", "attr": {"explicit_paddings": {"list": {}}, "padding": {"s": "VkFMSUQ="}, "strides": {"list": {"i": ["1", "2", "2", "1"]}}, "fused_ops": {"list": {"s": ["Qmlhc0FkZA==", "UmVsdQ=="]}}, "epsilon": {"f": 0.0}, "T": {"type": "DT_FLOAT"}, "dilations": {"list": {"i": ["1", "1", "1", "1"]}}, "num_args": {"i": "1"}, "use_cudnn_on_gpu": {"b": true}, "data_format": {"s": "TkhXQw=="}}}, {"name": "StatefulPartitionedCall/sequential_6/Resnet50/StatefulPartitionedCall/StatefulPartitionedCall/StatefulPartitionedCall/predict/resnet_v2_50/block2/unit_4/bottleneck_v2/conv3/BiasAdd", "op": "_FusedConv2D", "input": ["StatefulPartitionedCall/sequential_6/Resnet50/StatefulPartitionedCall/StatefulPartitionedCall/StatefulPartitionedCall/predict/resnet_v2_50/block2/unit_4/bottleneck_v2/conv2/Relu", "Func/StatefulPartitionedCall/sequential_6/Resnet50/StatefulPartitionedCall/StatefulPartitionedCall/StatefulPartitionedCall/input/_943", "Func/StatefulPartitionedCall/sequential_6/Resnet50/StatefulPartitionedCall/StatefulPartitionedCall/StatefulPartitionedCall/input/_944"], "device": "/device:CPU:0", "attr": {"T": {"type": "DT_FLOAT"}, "strides": {"list": {"i": ["1", "1", "1", "1"]}}, "epsilon": {"f": 0.0}, "data_format": {"s": "TkhXQw=="}, "num_args": {"i": "1"}, "explicit_paddings": {"list": {}}, "dilations": {"list": {"i": ["1", "1", "1", "1"]}}, "use_cudnn_on_gpu": {"b": true}, "padding": {"s": "U0FNRQ=="}, "fused_ops": {"list": {"s": ["Qmlhc0FkZA=="]}}}}, {"name": "StatefulPartitionedCall/sequential_6/Resnet50/StatefulPartitionedCall/StatefulPartitionedCall/StatefulPartitionedCall/predict/resnet_v2_50/block2/unit_4/bottleneck_v2/add", "op": "AddV2", "input": ["StatefulPartitionedCall/sequential_6/Resnet50/StatefulPartitionedCall/StatefulPartitionedCall/StatefulPartitionedCall/predict/resnet_v2_50/block2/unit_4/bottleneck_v2/shortcut/MaxPool", "StatefulPartitionedCall/sequential_6/Resnet50/StatefulPartitionedCall/StatefulPartitionedCall/StatefulPartitionedCall/predict/resnet_v2_50/block2/unit_4/bottleneck_v2/conv3/BiasAdd"], "attr": {"T": {"type": "DT_FLOAT"}}}, {"name": "StatefulPartitionedCall/sequential_6/Resnet50/StatefulPartitionedCall/StatefulPartitionedCall/StatefulPartitionedCall/predict/resnet_v2_50/block3/unit_1/bottleneck_v2/preact/FusedBatchNormV3/Mul", "op": "Mul", "input": ["StatefulPartitionedCall/sequential_6/Resnet50/StatefulPartitionedCall/StatefulPartitionedCall/StatefulPartitionedCall/predict/resnet_v2_50/block2/unit_4/bottleneck_v2/add", "StatefulPartitionedCall/sequential_6/Resnet50/StatefulPartitionedCall/StatefulPartitionedCall/StatefulPartitionedCall/predict/resnet_v2_50/block3/unit_1/bottleneck_v2/preact/FusedBatchNormV3/Scaled"], "attr": {"T": {"type": "DT_FLOAT"}}}, {"name": "StatefulPartitionedCall/sequential_6/Resnet50/StatefulPartitionedCall/StatefulPartitionedCall/StatefulPartitionedCall/predict/resnet_v2_50/block3/unit_1/bottleneck_v2/preact/FusedBatchNormV3", "op": "Add", "input": ["StatefulPartitionedCall/sequential_6/Resnet50/StatefulPartitionedCall/StatefulPartitionedCall/StatefulPartitionedCall/predict/resnet_v2_50/block3/unit_1/bottleneck_v2/preact/FusedBatchNormV3/Mul", "StatefulPartitionedCall/sequential_6/Resnet50/StatefulPartitionedCall/StatefulPartitionedCall/StatefulPartitionedCall/predict/resnet_v2_50/block3/unit_1/bottleneck_v2/preact/FusedBatchNormV3/Offset"], "attr": {"T": {"type": "DT_FLOAT"}}}, {"name": "StatefulPartitionedCall/sequential_6/Resnet50/StatefulPartitionedCall/StatefulPartitionedCall/StatefulPartitionedCall/predict/resnet_v2_50/block3/unit_1/bottleneck_v2/preact/Relu", "op": "Relu", "input": ["StatefulPartitionedCall/sequential_6/Resnet50/StatefulPartitionedCall/StatefulPartitionedCall/StatefulPartitionedCall/predict/resnet_v2_50/block3/unit_1/bottleneck_v2/preact/FusedBatchNormV3"], "attr": {"T": {"type": "DT_FLOAT"}}}, {"name": "StatefulPartitionedCall/sequential_6/Resnet50/StatefulPartitionedCall/StatefulPartitionedCall/StatefulPartitionedCall/predict/resnet_v2_50/block3/unit_1/bottleneck_v2/shortcut/BiasAdd", "op": "_FusedConv2D", "input": ["StatefulPartitionedCall/sequential_6/Resnet50/StatefulPartitionedCall/StatefulPartitionedCall/StatefulPartitionedCall/predict/resnet_v2_50/block3/unit_1/bottleneck_v2/preact/Relu", "Func/StatefulPartitionedCall/sequential_6/Resnet50/StatefulPartitionedCall/StatefulPartitionedCall/StatefulPartitionedCall/input/_949", "Func/StatefulPartitionedCall/sequential_6/Resnet50/StatefulPartitionedCall/StatefulPartitionedCall/StatefulPartitionedCall/input/_950"], "device": "/device:CPU:0", "attr": {"num_args": {"i": "1"}, "epsilon": {"f": 0.0}, "padding": {"s": "U0FNRQ=="}, "use_cudnn_on_gpu": {"b": true}, "T": {"type": "DT_FLOAT"}, "explicit_paddings": {"list": {}}, "strides": {"list": {"i": ["1", "1", "1", "1"]}}, "data_format": {"s": "TkhXQw=="}, "dilations": {"list": {"i": ["1", "1", "1", "1"]}}, "fused_ops": {"list": {"s": ["Qmlhc0FkZA=="]}}}}, {"name": "StatefulPartitionedCall/sequential_6/Resnet50/StatefulPartitionedCall/StatefulPartitionedCall/StatefulPartitionedCall/predict/resnet_v2_50/block3/unit_1/bottleneck_v2/conv1/Relu", "op": "_FusedConv2D", "input": ["StatefulPartitionedCall/sequential_6/Resnet50/StatefulPartitionedCall/StatefulPartitionedCall/StatefulPartitionedCall/predict/resnet_v2_50/block3/unit_1/bottleneck_v2/preact/Relu", "StatefulPartitionedCall/sequential_6/Resnet50/StatefulPartitionedCall/StatefulPartitionedCall/StatefulPartitionedCall/predict/resnet_v2_50/block3/unit_1/bottleneck_v2/conv1/Conv2D_weights", "StatefulPartitionedCall/sequential_6/Resnet50/StatefulPartitionedCall/StatefulPartitionedCall/StatefulPartitionedCall/predict/resnet_v2_50/block3/unit_1/bottleneck_v2/conv1/Conv2D_bn_offset"], "device": "/device:CPU:0", "attr": {"strides": {"list": {"i": ["1", "1", "1", "1"]}}, "data_format": {"s": "TkhXQw=="}, "epsilon": {"f": 0.0}, "fused_ops": {"list": {"s": ["Qmlhc0FkZA==", "UmVsdQ=="]}}, "dilations": {"list": {"i": ["1", "1", "1", "1"]}}, "T": {"type": "DT_FLOAT"}, "use_cudnn_on_gpu": {"b": true}, "padding": {"s": "U0FNRQ=="}, "num_args": {"i": "1"}, "explicit_paddings": {"list": {}}}}, {"name": "StatefulPartitionedCall/sequential_6/Resnet50/StatefulPartitionedCall/StatefulPartitionedCall/StatefulPartitionedCall/predict/resnet_v2_50/block3/unit_1/bottleneck_v2/conv2/Relu", "op": "_FusedConv2D", "input": ["StatefulPartitionedCall/sequential_6/Resnet50/StatefulPartitionedCall/StatefulPartitionedCall/StatefulPartitionedCall/predict/resnet_v2_50/block3/unit_1/bottleneck_v2/conv1/Relu", "StatefulPartitionedCall/sequential_6/Resnet50/StatefulPartitionedCall/StatefulPartitionedCall/StatefulPartitionedCall/predict/resnet_v2_50/block3/unit_1/bottleneck_v2/conv2/Conv2D_weights", "StatefulPartitionedCall/sequential_6/Resnet50/StatefulPartitionedCall/StatefulPartitionedCall/StatefulPartitionedCall/predict/resnet_v2_50/block3/unit_1/bottleneck_v2/conv2/Conv2D_bn_offset"], "device": "/device:CPU:0", "attr": {"fused_ops": {"list": {"s": ["Qmlhc0FkZA==", "UmVsdQ=="]}}, "dilations": {"list": {"i": ["1", "1", "1", "1"]}}, "strides": {"list": {"i": ["1", "1", "1", "1"]}}, "explicit_paddings": {"list": {}}, "use_cudnn_on_gpu": {"b": true}, "epsilon": {"f": 0.0}, "T": {"type": "DT_FLOAT"}, "padding": {"s": "U0FNRQ=="}, "data_format": {"s": "TkhXQw=="}, "num_args": {"i": "1"}}}, {"name": "StatefulPartitionedCall/sequential_6/Resnet50/StatefulPartitionedCall/StatefulPartitionedCall/StatefulPartitionedCall/predict/resnet_v2_50/block3/unit_1/bottleneck_v2/conv3/BiasAdd", "op": "_FusedConv2D", "input": ["StatefulPartitionedCall/sequential_6/Resnet50/StatefulPartitionedCall/StatefulPartitionedCall/StatefulPartitionedCall/predict/resnet_v2_50/block3/unit_1/bottleneck_v2/conv2/Relu", "Func/StatefulPartitionedCall/sequential_6/Resnet50/StatefulPartitionedCall/StatefulPartitionedCall/StatefulPartitionedCall/input/_961", "Func/StatefulPartitionedCall/sequential_6/Resnet50/StatefulPartitionedCall/StatefulPartitionedCall/StatefulPartitionedCall/input/_962"], "device": "/device:CPU:0", "attr": {"data_format": {"s": "TkhXQw=="}, "padding": {"s": "U0FNRQ=="}, "num_args": {"i": "1"}, "epsilon": {"f": 0.0}, "use_cudnn_on_gpu": {"b": true}, "strides": {"list": {"i": ["1", "1", "1", "1"]}}, "explicit_paddings": {"list": {}}, "dilations": {"list": {"i": ["1", "1", "1", "1"]}}, "fused_ops": {"list": {"s": ["Qmlhc0FkZA=="]}}, "T": {"type": "DT_FLOAT"}}}, {"name": "StatefulPartitionedCall/sequential_6/Resnet50/StatefulPartitionedCall/StatefulPartitionedCall/StatefulPartitionedCall/predict/resnet_v2_50/block3/unit_1/bottleneck_v2/add", "op": "AddV2", "input": ["StatefulPartitionedCall/sequential_6/Resnet50/StatefulPartitionedCall/StatefulPartitionedCall/StatefulPartitionedCall/predict/resnet_v2_50/block3/unit_1/bottleneck_v2/shortcut/BiasAdd", "StatefulPartitionedCall/sequential_6/Resnet50/StatefulPartitionedCall/StatefulPartitionedCall/StatefulPartitionedCall/predict/resnet_v2_50/block3/unit_1/bottleneck_v2/conv3/BiasAdd"], "attr": {"T": {"type": "DT_FLOAT"}}}, {"name": "StatefulPartitionedCall/sequential_6/Resnet50/StatefulPartitionedCall/StatefulPartitionedCall/StatefulPartitionedCall/predict/resnet_v2_50/block3/unit_2/bottleneck_v2/preact/FusedBatchNormV3/Mul", "op": "Mul", "input": ["StatefulPartitionedCall/sequential_6/Resnet50/StatefulPartitionedCall/StatefulPartitionedCall/StatefulPartitionedCall/predict/resnet_v2_50/block3/unit_1/bottleneck_v2/add", "StatefulPartitionedCall/sequential_6/Resnet50/StatefulPartitionedCall/StatefulPartitionedCall/StatefulPartitionedCall/predict/resnet_v2_50/block3/unit_2/bottleneck_v2/preact/FusedBatchNormV3/Scaled"], "attr": {"T": {"type": "DT_FLOAT"}}}, {"name": "StatefulPartitionedCall/sequential_6/Resnet50/StatefulPartitionedCall/StatefulPartitionedCall/StatefulPartitionedCall/predict/resnet_v2_50/block3/unit_2/bottleneck_v2/preact/FusedBatchNormV3", "op": "Add", "input": ["StatefulPartitionedCall/sequential_6/Resnet50/StatefulPartitionedCall/StatefulPartitionedCall/StatefulPartitionedCall/predict/resnet_v2_50/block3/unit_2/bottleneck_v2/preact/FusedBatchNormV3/Mul", "StatefulPartitionedCall/sequential_6/Resnet50/StatefulPartitionedCall/StatefulPartitionedCall/StatefulPartitionedCall/predict/resnet_v2_50/block3/unit_2/bottleneck_v2/preact/FusedBatchNormV3/Offset"], "attr": {"T": {"type": "DT_FLOAT"}}}, {"name": "StatefulPartitionedCall/sequential_6/Resnet50/StatefulPartitionedCall/StatefulPartitionedCall/StatefulPartitionedCall/predict/resnet_v2_50/block3/unit_2/bottleneck_v2/preact/Relu", "op": "Relu", "input": ["StatefulPartitionedCall/sequential_6/Resnet50/StatefulPartitionedCall/StatefulPartitionedCall/StatefulPartitionedCall/predict/resnet_v2_50/block3/unit_2/bottleneck_v2/preact/FusedBatchNormV3"], "attr": {"T": {"type": "DT_FLOAT"}}}, {"name": "StatefulPartitionedCall/sequential_6/Resnet50/StatefulPartitionedCall/StatefulPartitionedCall/StatefulPartitionedCall/predict/resnet_v2_50/block3/unit_2/bottleneck_v2/conv1/Relu", "op": "_FusedConv2D", "input": ["StatefulPartitionedCall/sequential_6/Resnet50/StatefulPartitionedCall/StatefulPartitionedCall/StatefulPartitionedCall/predict/resnet_v2_50/block3/unit_2/bottleneck_v2/preact/Relu", "StatefulPartitionedCall/sequential_6/Resnet50/StatefulPartitionedCall/StatefulPartitionedCall/StatefulPartitionedCall/predict/resnet_v2_50/block3/unit_2/bottleneck_v2/conv1/Conv2D_weights", "StatefulPartitionedCall/sequential_6/Resnet50/StatefulPartitionedCall/StatefulPartitionedCall/StatefulPartitionedCall/predict/resnet_v2_50/block3/unit_2/bottleneck_v2/conv1/Conv2D_bn_offset"], "device": "/device:CPU:0", "attr": {"explicit_paddings": {"list": {}}, "T": {"type": "DT_FLOAT"}, "strides": {"list": {"i": ["1", "1", "1", "1"]}}, "fused_ops": {"list": {"s": ["Qmlhc0FkZA==", "UmVsdQ=="]}}, "dilations": {"list": {"i": ["1", "1", "1", "1"]}}, "data_format": {"s": "TkhXQw=="}, "num_args": {"i": "1"}, "padding": {"s": "U0FNRQ=="}, "use_cudnn_on_gpu": {"b": true}, "epsilon": {"f": 0.0}}}, {"name": "StatefulPartitionedCall/sequential_6/Resnet50/StatefulPartitionedCall/StatefulPartitionedCall/StatefulPartitionedCall/predict/resnet_v2_50/block3/unit_2/bottleneck_v2/conv2/Relu", "op": "_FusedConv2D", "input": ["StatefulPartitionedCall/sequential_6/Resnet50/StatefulPartitionedCall/StatefulPartitionedCall/StatefulPartitionedCall/predict/resnet_v2_50/block3/unit_2/bottleneck_v2/conv1/Relu", "StatefulPartitionedCall/sequential_6/Resnet50/StatefulPartitionedCall/StatefulPartitionedCall/StatefulPartitionedCall/predict/resnet_v2_50/block3/unit_2/bottleneck_v2/conv2/Conv2D_weights", "StatefulPartitionedCall/sequential_6/Resnet50/StatefulPartitionedCall/StatefulPartitionedCall/StatefulPartitionedCall/predict/resnet_v2_50/block3/unit_2/bottleneck_v2/conv2/Conv2D_bn_offset"], "device": "/device:CPU:0", "attr": {"use_cudnn_on_gpu": {"b": true}, "padding": {"s": "U0FNRQ=="}, "num_args": {"i": "1"}, "strides": {"list": {"i": ["1", "1", "1", "1"]}}, "fused_ops": {"list": {"s": ["Qmlhc0FkZA==", "UmVsdQ=="]}}, "data_format": {"s": "TkhXQw=="}, "dilations": {"list": {"i": ["1", "1", "1", "1"]}}, "epsilon": {"f": 0.0}, "explicit_paddings": {"list": {}}, "T": {"type": "DT_FLOAT"}}}, {"name": "StatefulPartitionedCall/sequential_6/Resnet50/StatefulPartitionedCall/StatefulPartitionedCall/StatefulPartitionedCall/predict/resnet_v2_50/block3/unit_2/bottleneck_v2/conv3/BiasAdd", "op": "_FusedConv2D", "input": ["StatefulPartitionedCall/sequential_6/Resnet50/StatefulPartitionedCall/StatefulPartitionedCall/StatefulPartitionedCall/predict/resnet_v2_50/block3/unit_2/bottleneck_v2/conv2/Relu", "Func/StatefulPartitionedCall/sequential_6/Resnet50/StatefulPartitionedCall/StatefulPartitionedCall/StatefulPartitionedCall/input/_977", "Func/StatefulPartitionedCall/sequential_6/Resnet50/StatefulPartitionedCall/StatefulPartitionedCall/StatefulPartitionedCall/input/_978"], "device": "/device:CPU:0", "attr": {"epsilon": {"f": 0.0}, "use_cudnn_on_gpu": {"b": true}, "padding": {"s": "U0FNRQ=="}, "data_format": {"s": "TkhXQw=="}, "strides": {"list": {"i": ["1", "1", "1", "1"]}}, "explicit_paddings": {"list": {}}, "num_args": {"i": "1"}, "fused_ops": {"list": {"s": ["Qmlhc0FkZA=="]}}, "T": {"type": "DT_FLOAT"}, "dilations": {"list": {"i": ["1", "1", "1", "1"]}}}}, {"name": "StatefulPartitionedCall/sequential_6/Resnet50/StatefulPartitionedCall/StatefulPartitionedCall/StatefulPartitionedCall/predict/resnet_v2_50/block3/unit_2/bottleneck_v2/add", "op": "AddV2", "input": ["StatefulPartitionedCall/sequential_6/Resnet50/StatefulPartitionedCall/StatefulPartitionedCall/StatefulPartitionedCall/predict/resnet_v2_50/block3/unit_1/bottleneck_v2/add", "StatefulPartitionedCall/sequential_6/Resnet50/StatefulPartitionedCall/StatefulPartitionedCall/StatefulPartitionedCall/predict/resnet_v2_50/block3/unit_2/bottleneck_v2/conv3/BiasAdd"], "attr": {"T": {"type": "DT_FLOAT"}}}, {"name": "StatefulPartitionedCall/sequential_6/Resnet50/StatefulPartitionedCall/StatefulPartitionedCall/StatefulPartitionedCall/predict/resnet_v2_50/block3/unit_3/bottleneck_v2/preact/FusedBatchNormV3/Mul", "op": "Mul", "input": ["StatefulPartitionedCall/sequential_6/Resnet50/StatefulPartitionedCall/StatefulPartitionedCall/StatefulPartitionedCall/predict/resnet_v2_50/block3/unit_2/bottleneck_v2/add", "StatefulPartitionedCall/sequential_6/Resnet50/StatefulPartitionedCall/StatefulPartitionedCall/StatefulPartitionedCall/predict/resnet_v2_50/block3/unit_3/bottleneck_v2/preact/FusedBatchNormV3/Scaled"], "attr": {"T": {"type": "DT_FLOAT"}}}, {"name": "StatefulPartitionedCall/sequential_6/Resnet50/StatefulPartitionedCall/StatefulPartitionedCall/StatefulPartitionedCall/predict/resnet_v2_50/block3/unit_3/bottleneck_v2/preact/FusedBatchNormV3", "op": "Add", "input": ["StatefulPartitionedCall/sequential_6/Resnet50/StatefulPartitionedCall/StatefulPartitionedCall/StatefulPartitionedCall/predict/resnet_v2_50/block3/unit_3/bottleneck_v2/preact/FusedBatchNormV3/Mul", "StatefulPartitionedCall/sequential_6/Resnet50/StatefulPartitionedCall/StatefulPartitionedCall/StatefulPartitionedCall/predict/resnet_v2_50/block3/unit_3/bottleneck_v2/preact/FusedBatchNormV3/Offset"], "attr": {"T": {"type": "DT_FLOAT"}}}, {"name": "StatefulPartitionedCall/sequential_6/Resnet50/StatefulPartitionedCall/StatefulPartitionedCall/StatefulPartitionedCall/predict/resnet_v2_50/block3/unit_3/bottleneck_v2/preact/Relu", "op": "Relu", "input": ["StatefulPartitionedCall/sequential_6/Resnet50/StatefulPartitionedCall/StatefulPartitionedCall/StatefulPartitionedCall/predict/resnet_v2_50/block3/unit_3/bottleneck_v2/preact/FusedBatchNormV3"], "attr": {"T": {"type": "DT_FLOAT"}}}, {"name": "StatefulPartitionedCall/sequential_6/Resnet50/StatefulPartitionedCall/StatefulPartitionedCall/StatefulPartitionedCall/predict/resnet_v2_50/block3/unit_3/bottleneck_v2/conv1/Relu", "op": "_FusedConv2D", "input": ["StatefulPartitionedCall/sequential_6/Resnet50/StatefulPartitionedCall/StatefulPartitionedCall/StatefulPartitionedCall/predict/resnet_v2_50/block3/unit_3/bottleneck_v2/preact/Relu", "StatefulPartitionedCall/sequential_6/Resnet50/StatefulPartitionedCall/StatefulPartitionedCall/StatefulPartitionedCall/predict/resnet_v2_50/block3/unit_3/bottleneck_v2/conv1/Conv2D_weights", "StatefulPartitionedCall/sequential_6/Resnet50/StatefulPartitionedCall/StatefulPartitionedCall/StatefulPartitionedCall/predict/resnet_v2_50/block3/unit_3/bottleneck_v2/conv1/Conv2D_bn_offset"], "device": "/device:CPU:0", "attr": {"fused_ops": {"list": {"s": ["Qmlhc0FkZA==", "UmVsdQ=="]}}, "T": {"type": "DT_FLOAT"}, "strides": {"list": {"i": ["1", "1", "1", "1"]}}, "epsilon": {"f": 0.0}, "explicit_paddings": {"list": {}}, "dilations": {"list": {"i": ["1", "1", "1", "1"]}}, "padding": {"s": "U0FNRQ=="}, "use_cudnn_on_gpu": {"b": true}, "num_args": {"i": "1"}, "data_format": {"s": "TkhXQw=="}}}, {"name": "StatefulPartitionedCall/sequential_6/Resnet50/StatefulPartitionedCall/StatefulPartitionedCall/StatefulPartitionedCall/predict/resnet_v2_50/block3/unit_3/bottleneck_v2/conv2/Relu", "op": "_FusedConv2D", "input": ["StatefulPartitionedCall/sequential_6/Resnet50/StatefulPartitionedCall/StatefulPartitionedCall/StatefulPartitionedCall/predict/resnet_v2_50/block3/unit_3/bottleneck_v2/conv1/Relu", "StatefulPartitionedCall/sequential_6/Resnet50/StatefulPartitionedCall/StatefulPartitionedCall/StatefulPartitionedCall/predict/resnet_v2_50/block3/unit_3/bottleneck_v2/conv2/Conv2D_weights", "StatefulPartitionedCall/sequential_6/Resnet50/StatefulPartitionedCall/StatefulPartitionedCall/StatefulPartitionedCall/predict/resnet_v2_50/block3/unit_3/bottleneck_v2/conv2/Conv2D_bn_offset"], "device": "/device:CPU:0", "attr": {"T": {"type": "DT_FLOAT"}, "data_format": {"s": "TkhXQw=="}, "fused_ops": {"list": {"s": ["Qmlhc0FkZA==", "UmVsdQ=="]}}, "dilations": {"list": {"i": ["1", "1", "1", "1"]}}, "use_cudnn_on_gpu": {"b": true}, "epsilon": {"f": 0.0}, "num_args": {"i": "1"}, "strides": {"list": {"i": ["1", "1", "1", "1"]}}, "explicit_paddings": {"list": {}}, "padding": {"s": "U0FNRQ=="}}}, {"name": "StatefulPartitionedCall/sequential_6/Resnet50/StatefulPartitionedCall/StatefulPartitionedCall/StatefulPartitionedCall/predict/resnet_v2_50/block3/unit_3/bottleneck_v2/conv3/BiasAdd", "op": "_FusedConv2D", "input": ["StatefulPartitionedCall/sequential_6/Resnet50/StatefulPartitionedCall/StatefulPartitionedCall/StatefulPartitionedCall/predict/resnet_v2_50/block3/unit_3/bottleneck_v2/conv2/Relu", "Func/StatefulPartitionedCall/sequential_6/Resnet50/StatefulPartitionedCall/StatefulPartitionedCall/StatefulPartitionedCall/input/_993", "Func/StatefulPartitionedCall/sequential_6/Resnet50/StatefulPartitionedCall/StatefulPartitionedCall/StatefulPartitionedCall/input/_994"], "device": "/device:CPU:0", "attr": {"fused_ops": {"list": {"s": ["Qmlhc0FkZA=="]}}, "padding": {"s": "U0FNRQ=="}, "num_args": {"i": "1"}, "data_format": {"s": "TkhXQw=="}, "dilations": {"list": {"i": ["1", "1", "1", "1"]}}, "explicit_paddings": {"list": {}}, "epsilon": {"f": 0.0}, "use_cudnn_on_gpu": {"b": true}, "T": {"type": "DT_FLOAT"}, "strides": {"list": {"i": ["1", "1", "1", "1"]}}}}, {"name": "StatefulPartitionedCall/sequential_6/Resnet50/StatefulPartitionedCall/StatefulPartitionedCall/StatefulPartitionedCall/predict/resnet_v2_50/block3/unit_3/bottleneck_v2/add", "op": "AddV2", "input": ["StatefulPartitionedCall/sequential_6/Resnet50/StatefulPartitionedCall/StatefulPartitionedCall/StatefulPartitionedCall/predict/resnet_v2_50/block3/unit_2/bottleneck_v2/add", "StatefulPartitionedCall/sequential_6/Resnet50/StatefulPartitionedCall/StatefulPartitionedCall/StatefulPartitionedCall/predict/resnet_v2_50/block3/unit_3/bottleneck_v2/conv3/BiasAdd"], "attr": {"T": {"type": "DT_FLOAT"}}}, {"name": "StatefulPartitionedCall/sequential_6/Resnet50/StatefulPartitionedCall/StatefulPartitionedCall/StatefulPartitionedCall/predict/resnet_v2_50/block3/unit_4/bottleneck_v2/preact/FusedBatchNormV3/Mul", "op": "Mul", "input": ["StatefulPartitionedCall/sequential_6/Resnet50/StatefulPartitionedCall/StatefulPartitionedCall/StatefulPartitionedCall/predict/resnet_v2_50/block3/unit_3/bottleneck_v2/add", "StatefulPartitionedCall/sequential_6/Resnet50/StatefulPartitionedCall/StatefulPartitionedCall/StatefulPartitionedCall/predict/resnet_v2_50/block3/unit_4/bottleneck_v2/preact/FusedBatchNormV3/Scaled"], "attr": {"T": {"type": "DT_FLOAT"}}}, {"name": "StatefulPartitionedCall/sequential_6/Resnet50/StatefulPartitionedCall/StatefulPartitionedCall/StatefulPartitionedCall/predict/resnet_v2_50/block3/unit_4/bottleneck_v2/preact/FusedBatchNormV3", "op": "Add", "input": ["StatefulPartitionedCall/sequential_6/Resnet50/StatefulPartitionedCall/StatefulPartitionedCall/StatefulPartitionedCall/predict/resnet_v2_50/block3/unit_4/bottleneck_v2/preact/FusedBatchNormV3/Mul", "StatefulPartitionedCall/sequential_6/Resnet50/StatefulPartitionedCall/StatefulPartitionedCall/StatefulPartitionedCall/predict/resnet_v2_50/block3/unit_4/bottleneck_v2/preact/FusedBatchNormV3/Offset"], "attr": {"T": {"type": "DT_FLOAT"}}}, {"name": "StatefulPartitionedCall/sequential_6/Resnet50/StatefulPartitionedCall/StatefulPartitionedCall/StatefulPartitionedCall/predict/resnet_v2_50/block3/unit_4/bottleneck_v2/preact/Relu", "op": "Relu", "input": ["StatefulPartitionedCall/sequential_6/Resnet50/StatefulPartitionedCall/StatefulPartitionedCall/StatefulPartitionedCall/predict/resnet_v2_50/block3/unit_4/bottleneck_v2/preact/FusedBatchNormV3"], "attr": {"T": {"type": "DT_FLOAT"}}}, {"name": "StatefulPartitionedCall/sequential_6/Resnet50/StatefulPartitionedCall/StatefulPartitionedCall/StatefulPartitionedCall/predict/resnet_v2_50/block3/unit_4/bottleneck_v2/conv1/Relu", "op": "_FusedConv2D", "input": ["StatefulPartitionedCall/sequential_6/Resnet50/StatefulPartitionedCall/StatefulPartitionedCall/StatefulPartitionedCall/predict/resnet_v2_50/block3/unit_4/bottleneck_v2/preact/Relu", "StatefulPartitionedCall/sequential_6/Resnet50/StatefulPartitionedCall/StatefulPartitionedCall/StatefulPartitionedCall/predict/resnet_v2_50/block3/unit_4/bottleneck_v2/conv1/Conv2D_weights", "StatefulPartitionedCall/sequential_6/Resnet50/StatefulPartitionedCall/StatefulPartitionedCall/StatefulPartitionedCall/predict/resnet_v2_50/block3/unit_4/bottleneck_v2/conv1/Conv2D_bn_offset"], "device": "/device:CPU:0", "attr": {"strides": {"list": {"i": ["1", "1", "1", "1"]}}, "fused_ops": {"list": {"s": ["Qmlhc0FkZA==", "UmVsdQ=="]}}, "epsilon": {"f": 0.0}, "dilations": {"list": {"i": ["1", "1", "1", "1"]}}, "padding": {"s": "U0FNRQ=="}, "use_cudnn_on_gpu": {"b": true}, "data_format": {"s": "TkhXQw=="}, "explicit_paddings": {"list": {}}, "num_args": {"i": "1"}, "T": {"type": "DT_FLOAT"}}}, {"name": "StatefulPartitionedCall/sequential_6/Resnet50/StatefulPartitionedCall/StatefulPartitionedCall/StatefulPartitionedCall/predict/resnet_v2_50/block3/unit_4/bottleneck_v2/conv2/Relu", "op": "_FusedConv2D", "input": ["StatefulPartitionedCall/sequential_6/Resnet50/StatefulPartitionedCall/StatefulPartitionedCall/StatefulPartitionedCall/predict/resnet_v2_50/block3/unit_4/bottleneck_v2/conv1/Relu", "StatefulPartitionedCall/sequential_6/Resnet50/StatefulPartitionedCall/StatefulPartitionedCall/StatefulPartitionedCall/predict/resnet_v2_50/block3/unit_4/bottleneck_v2/conv2/Conv2D_weights", "StatefulPartitionedCall/sequential_6/Resnet50/StatefulPartitionedCall/StatefulPartitionedCall/StatefulPartitionedCall/predict/resnet_v2_50/block3/unit_4/bottleneck_v2/conv2/Conv2D_bn_offset"], "device": "/device:CPU:0", "attr": {"use_cudnn_on_gpu": {"b": true}, "data_format": {"s": "TkhXQw=="}, "num_args": {"i": "1"}, "epsilon": {"f": 0.0}, "fused_ops": {"list": {"s": ["Qmlhc0FkZA==", "UmVsdQ=="]}}, "dilations": {"list": {"i": ["1", "1", "1", "1"]}}, "T": {"type": "DT_FLOAT"}, "padding": {"s": "U0FNRQ=="}, "strides": {"list": {"i": ["1", "1", "1", "1"]}}, "explicit_paddings": {"list": {}}}}, {"name": "StatefulPartitionedCall/sequential_6/Resnet50/StatefulPartitionedCall/StatefulPartitionedCall/StatefulPartitionedCall/predict/resnet_v2_50/block3/unit_4/bottleneck_v2/conv3/BiasAdd", "op": "_FusedConv2D", "input": ["StatefulPartitionedCall/sequential_6/Resnet50/StatefulPartitionedCall/StatefulPartitionedCall/StatefulPartitionedCall/predict/resnet_v2_50/block3/unit_4/bottleneck_v2/conv2/Relu", "Func/StatefulPartitionedCall/sequential_6/Resnet50/StatefulPartitionedCall/StatefulPartitionedCall/StatefulPartitionedCall/input/_1009", "Func/StatefulPartitionedCall/sequential_6/Resnet50/StatefulPartitionedCall/StatefulPartitionedCall/StatefulPartitionedCall/input/_1010"], "device": "/device:CPU:0", "attr": {"epsilon": {"f": 0.0}, "padding": {"s": "U0FNRQ=="}, "T": {"type": "DT_FLOAT"}, "explicit_paddings": {"list": {}}, "data_format": {"s": "TkhXQw=="}, "use_cudnn_on_gpu": {"b": true}, "dilations": {"list": {"i": ["1", "1", "1", "1"]}}, "strides": {"list": {"i": ["1", "1", "1", "1"]}}, "num_args": {"i": "1"}, "fused_ops": {"list": {"s": ["Qmlhc0FkZA=="]}}}}, {"name": "StatefulPartitionedCall/sequential_6/Resnet50/StatefulPartitionedCall/StatefulPartitionedCall/StatefulPartitionedCall/predict/resnet_v2_50/block3/unit_4/bottleneck_v2/add", "op": "AddV2", "input": ["StatefulPartitionedCall/sequential_6/Resnet50/StatefulPartitionedCall/StatefulPartitionedCall/StatefulPartitionedCall/predict/resnet_v2_50/block3/unit_3/bottleneck_v2/add", "StatefulPartitionedCall/sequential_6/Resnet50/StatefulPartitionedCall/StatefulPartitionedCall/StatefulPartitionedCall/predict/resnet_v2_50/block3/unit_4/bottleneck_v2/conv3/BiasAdd"], "attr": {"T": {"type": "DT_FLOAT"}}}, {"name": "StatefulPartitionedCall/sequential_6/Resnet50/StatefulPartitionedCall/StatefulPartitionedCall/StatefulPartitionedCall/predict/resnet_v2_50/block3/unit_5/bottleneck_v2/preact/FusedBatchNormV3/Mul", "op": "Mul", "input": ["StatefulPartitionedCall/sequential_6/Resnet50/StatefulPartitionedCall/StatefulPartitionedCall/StatefulPartitionedCall/predict/resnet_v2_50/block3/unit_4/bottleneck_v2/add", "StatefulPartitionedCall/sequential_6/Resnet50/StatefulPartitionedCall/StatefulPartitionedCall/StatefulPartitionedCall/predict/resnet_v2_50/block3/unit_5/bottleneck_v2/preact/FusedBatchNormV3/Scaled"], "attr": {"T": {"type": "DT_FLOAT"}}}, {"name": "StatefulPartitionedCall/sequential_6/Resnet50/StatefulPartitionedCall/StatefulPartitionedCall/StatefulPartitionedCall/predict/resnet_v2_50/block3/unit_5/bottleneck_v2/preact/FusedBatchNormV3", "op": "Add", "input": ["StatefulPartitionedCall/sequential_6/Resnet50/StatefulPartitionedCall/StatefulPartitionedCall/StatefulPartitionedCall/predict/resnet_v2_50/block3/unit_5/bottleneck_v2/preact/FusedBatchNormV3/Mul", "StatefulPartitionedCall/sequential_6/Resnet50/StatefulPartitionedCall/StatefulPartitionedCall/StatefulPartitionedCall/predict/resnet_v2_50/block3/unit_5/bottleneck_v2/preact/FusedBatchNormV3/Offset"], "attr": {"T": {"type": "DT_FLOAT"}}}, {"name": "StatefulPartitionedCall/sequential_6/Resnet50/StatefulPartitionedCall/StatefulPartitionedCall/StatefulPartitionedCall/predict/resnet_v2_50/block3/unit_5/bottleneck_v2/preact/Relu", "op": "Relu", "input": ["StatefulPartitionedCall/sequential_6/Resnet50/StatefulPartitionedCall/StatefulPartitionedCall/StatefulPartitionedCall/predict/resnet_v2_50/block3/unit_5/bottleneck_v2/preact/FusedBatchNormV3"], "attr": {"T": {"type": "DT_FLOAT"}}}, {"name": "StatefulPartitionedCall/sequential_6/Resnet50/StatefulPartitionedCall/StatefulPartitionedCall/StatefulPartitionedCall/predict/resnet_v2_50/block3/unit_5/bottleneck_v2/conv1/Relu", "op": "_FusedConv2D", "input": ["StatefulPartitionedCall/sequential_6/Resnet50/StatefulPartitionedCall/StatefulPartitionedCall/StatefulPartitionedCall/predict/resnet_v2_50/block3/unit_5/bottleneck_v2/preact/Relu", "StatefulPartitionedCall/sequential_6/Resnet50/StatefulPartitionedCall/StatefulPartitionedCall/StatefulPartitionedCall/predict/resnet_v2_50/block3/unit_5/bottleneck_v2/conv1/Conv2D_weights", "StatefulPartitionedCall/sequential_6/Resnet50/StatefulPartitionedCall/StatefulPartitionedCall/StatefulPartitionedCall/predict/resnet_v2_50/block3/unit_5/bottleneck_v2/conv1/Conv2D_bn_offset"], "device": "/device:CPU:0", "attr": {"epsilon": {"f": 0.0}, "use_cudnn_on_gpu": {"b": true}, "fused_ops": {"list": {"s": ["Qmlhc0FkZA==", "UmVsdQ=="]}}, "T": {"type": "DT_FLOAT"}, "strides": {"list": {"i": ["1", "1", "1", "1"]}}, "padding": {"s": "U0FNRQ=="}, "explicit_paddings": {"list": {}}, "data_format": {"s": "TkhXQw=="}, "dilations": {"list": {"i": ["1", "1", "1", "1"]}}, "num_args": {"i": "1"}}}, {"name": "StatefulPartitionedCall/sequential_6/Resnet50/StatefulPartitionedCall/StatefulPartitionedCall/StatefulPartitionedCall/predict/resnet_v2_50/block3/unit_5/bottleneck_v2/conv2/Relu", "op": "_FusedConv2D", "input": ["StatefulPartitionedCall/sequential_6/Resnet50/StatefulPartitionedCall/StatefulPartitionedCall/StatefulPartitionedCall/predict/resnet_v2_50/block3/unit_5/bottleneck_v2/conv1/Relu", "StatefulPartitionedCall/sequential_6/Resnet50/StatefulPartitionedCall/StatefulPartitionedCall/StatefulPartitionedCall/predict/resnet_v2_50/block3/unit_5/bottleneck_v2/conv2/Conv2D_weights", "StatefulPartitionedCall/sequential_6/Resnet50/StatefulPartitionedCall/StatefulPartitionedCall/StatefulPartitionedCall/predict/resnet_v2_50/block3/unit_5/bottleneck_v2/conv2/Conv2D_bn_offset"], "device": "/device:CPU:0", "attr": {"padding": {"s": "U0FNRQ=="}, "epsilon": {"f": 0.0}, "T": {"type": "DT_FLOAT"}, "dilations": {"list": {"i": ["1", "1", "1", "1"]}}, "data_format": {"s": "TkhXQw=="}, "fused_ops": {"list": {"s": ["Qmlhc0FkZA==", "UmVsdQ=="]}}, "num_args": {"i": "1"}, "strides": {"list": {"i": ["1", "1", "1", "1"]}}, "use_cudnn_on_gpu": {"b": true}, "explicit_paddings": {"list": {}}}}, {"name": "StatefulPartitionedCall/sequential_6/Resnet50/StatefulPartitionedCall/StatefulPartitionedCall/StatefulPartitionedCall/predict/resnet_v2_50/block3/unit_5/bottleneck_v2/conv3/BiasAdd", "op": "_FusedConv2D", "input": ["StatefulPartitionedCall/sequential_6/Resnet50/StatefulPartitionedCall/StatefulPartitionedCall/StatefulPartitionedCall/predict/resnet_v2_50/block3/unit_5/bottleneck_v2/conv2/Relu", "Func/StatefulPartitionedCall/sequential_6/Resnet50/StatefulPartitionedCall/StatefulPartitionedCall/StatefulPartitionedCall/input/_1025", "Func/StatefulPartitionedCall/sequential_6/Resnet50/StatefulPartitionedCall/StatefulPartitionedCall/StatefulPartitionedCall/input/_1026"], "device": "/device:CPU:0", "attr": {"padding": {"s": "U0FNRQ=="}, "fused_ops": {"list": {"s": ["Qmlhc0FkZA=="]}}, "epsilon": {"f": 0.0}, "strides": {"list": {"i": ["1", "1", "1", "1"]}}, "T": {"type": "DT_FLOAT"}, "data_format": {"s": "TkhXQw=="}, "dilations": {"list": {"i": ["1", "1", "1", "1"]}}, "explicit_paddings": {"list": {}}, "use_cudnn_on_gpu": {"b": true}, "num_args": {"i": "1"}}}, {"name": "StatefulPartitionedCall/sequential_6/Resnet50/StatefulPartitionedCall/StatefulPartitionedCall/StatefulPartitionedCall/predict/resnet_v2_50/block3/unit_5/bottleneck_v2/add", "op": "AddV2", "input": ["StatefulPartitionedCall/sequential_6/Resnet50/StatefulPartitionedCall/StatefulPartitionedCall/StatefulPartitionedCall/predict/resnet_v2_50/block3/unit_4/bottleneck_v2/add", "StatefulPartitionedCall/sequential_6/Resnet50/StatefulPartitionedCall/StatefulPartitionedCall/StatefulPartitionedCall/predict/resnet_v2_50/block3/unit_5/bottleneck_v2/conv3/BiasAdd"], "attr": {"T": {"type": "DT_FLOAT"}}}, {"name": "StatefulPartitionedCall/sequential_6/Resnet50/StatefulPartitionedCall/StatefulPartitionedCall/StatefulPartitionedCall/predict/resnet_v2_50/block3/unit_6/bottleneck_v2/shortcut/MaxPool", "op": "MaxPool", "input": ["StatefulPartitionedCall/sequential_6/Resnet50/StatefulPartitionedCall/StatefulPartitionedCall/StatefulPartitionedCall/predict/resnet_v2_50/block3/unit_5/bottleneck_v2/add"], "attr": {"T": {"type": "DT_FLOAT"}, "explicit_paddings": {"list": {}}, "data_format": {"s": "TkhXQw=="}, "padding": {"s": "U0FNRQ=="}, "ksize": {"list": {"i": ["1", "1", "1", "1"]}}, "strides": {"list": {"i": ["1", "2", "2", "1"]}}}}, {"name": "StatefulPartitionedCall/sequential_6/Resnet50/StatefulPartitionedCall/StatefulPartitionedCall/StatefulPartitionedCall/predict/resnet_v2_50/block3/unit_6/bottleneck_v2/preact/FusedBatchNormV3/Mul", "op": "Mul", "input": ["StatefulPartitionedCall/sequential_6/Resnet50/StatefulPartitionedCall/StatefulPartitionedCall/StatefulPartitionedCall/predict/resnet_v2_50/block3/unit_5/bottleneck_v2/add", "StatefulPartitionedCall/sequential_6/Resnet50/StatefulPartitionedCall/StatefulPartitionedCall/StatefulPartitionedCall/predict/resnet_v2_50/block3/unit_6/bottleneck_v2/preact/FusedBatchNormV3/Scaled"], "attr": {"T": {"type": "DT_FLOAT"}}}, {"name": "StatefulPartitionedCall/sequential_6/Resnet50/StatefulPartitionedCall/StatefulPartitionedCall/StatefulPartitionedCall/predict/resnet_v2_50/block3/unit_6/bottleneck_v2/preact/FusedBatchNormV3", "op": "Add", "input": ["StatefulPartitionedCall/sequential_6/Resnet50/StatefulPartitionedCall/StatefulPartitionedCall/StatefulPartitionedCall/predict/resnet_v2_50/block3/unit_6/bottleneck_v2/preact/FusedBatchNormV3/Mul", "StatefulPartitionedCall/sequential_6/Resnet50/StatefulPartitionedCall/StatefulPartitionedCall/StatefulPartitionedCall/predict/resnet_v2_50/block3/unit_6/bottleneck_v2/preact/FusedBatchNormV3/Offset"], "attr": {"T": {"type": "DT_FLOAT"}}}, {"name": "StatefulPartitionedCall/sequential_6/Resnet50/StatefulPartitionedCall/StatefulPartitionedCall/StatefulPartitionedCall/predict/resnet_v2_50/block3/unit_6/bottleneck_v2/preact/Relu", "op": "Relu", "input": ["StatefulPartitionedCall/sequential_6/Resnet50/StatefulPartitionedCall/StatefulPartitionedCall/StatefulPartitionedCall/predict/resnet_v2_50/block3/unit_6/bottleneck_v2/preact/FusedBatchNormV3"], "attr": {"T": {"type": "DT_FLOAT"}}}, {"name": "StatefulPartitionedCall/sequential_6/Resnet50/StatefulPartitionedCall/StatefulPartitionedCall/StatefulPartitionedCall/predict/resnet_v2_50/block3/unit_6/bottleneck_v2/conv1/Relu", "op": "_FusedConv2D", "input": ["StatefulPartitionedCall/sequential_6/Resnet50/StatefulPartitionedCall/StatefulPartitionedCall/StatefulPartitionedCall/predict/resnet_v2_50/block3/unit_6/bottleneck_v2/preact/Relu", "StatefulPartitionedCall/sequential_6/Resnet50/StatefulPartitionedCall/StatefulPartitionedCall/StatefulPartitionedCall/predict/resnet_v2_50/block3/unit_6/bottleneck_v2/conv1/Conv2D_weights", "StatefulPartitionedCall/sequential_6/Resnet50/StatefulPartitionedCall/StatefulPartitionedCall/StatefulPartitionedCall/predict/resnet_v2_50/block3/unit_6/bottleneck_v2/conv1/Conv2D_bn_offset"], "device": "/device:CPU:0", "attr": {"fused_ops": {"list": {"s": ["Qmlhc0FkZA==", "UmVsdQ=="]}}, "dilations": {"list": {"i": ["1", "1", "1", "1"]}}, "epsilon": {"f": 0.0}, "num_args": {"i": "1"}, "padding": {"s": "U0FNRQ=="}, "explicit_paddings": {"list": {}}, "T": {"type": "DT_FLOAT"}, "data_format": {"s": "TkhXQw=="}, "use_cudnn_on_gpu": {"b": true}, "strides": {"list": {"i": ["1", "1", "1", "1"]}}}}, {"name": "StatefulPartitionedCall/sequential_6/Resnet50/StatefulPartitionedCall/StatefulPartitionedCall/StatefulPartitionedCall/predict/resnet_v2_50/block3/unit_6/bottleneck_v2/Pad", "op": "Pad", "input": ["StatefulPartitionedCall/sequential_6/Resnet50/StatefulPartitionedCall/StatefulPartitionedCall/StatefulPartitionedCall/predict/resnet_v2_50/block3/unit_6/bottleneck_v2/conv1/Relu", "StatefulPartitionedCall/sequential_6/Resnet50/StatefulPartitionedCall/StatefulPartitionedCall/StatefulPartitionedCall/predict/resnet_v2_50/block3/unit_6/bottleneck_v2/Pad/paddings"], "attr": {"T": {"type": "DT_FLOAT"}, "Tpaddings": {"type": "DT_INT32"}}}, {"name": "StatefulPartitionedCall/sequential_6/Resnet50/StatefulPartitionedCall/StatefulPartitionedCall/StatefulPartitionedCall/predict/resnet_v2_50/block3/unit_6/bottleneck_v2/conv2/Relu", "op": "_FusedConv2D", "input": ["StatefulPartitionedCall/sequential_6/Resnet50/StatefulPartitionedCall/StatefulPartitionedCall/StatefulPartitionedCall/predict/resnet_v2_50/block3/unit_6/bottleneck_v2/Pad", "StatefulPartitionedCall/sequential_6/Resnet50/StatefulPartitionedCall/StatefulPartitionedCall/StatefulPartitionedCall/predict/resnet_v2_50/block3/unit_6/bottleneck_v2/conv2/Conv2D_weights", "StatefulPartitionedCall/sequential_6/Resnet50/StatefulPartitionedCall/StatefulPartitionedCall/StatefulPartitionedCall/predict/resnet_v2_50/block3/unit_6/bottleneck_v2/conv2/Conv2D_bn_offset"], "device": "/device:CPU:0", "attr": {"use_cudnn_on_gpu": {"b": true}, "T": {"type": "DT_FLOAT"}, "epsilon": {"f": 0.0}, "strides": {"list": {"i": ["1", "2", "2", "1"]}}, "explicit_paddings": {"list": {}}, "num_args": {"i": "1"}, "data_format": {"s": "TkhXQw=="}, "fused_ops": {"list": {"s": ["Qmlhc0FkZA==", "UmVsdQ=="]}}, "dilations": {"list": {"i": ["1", "1", "1", "1"]}}, "padding": {"s": "VkFMSUQ="}}}, {"name": "StatefulPartitionedCall/sequential_6/Resnet50/StatefulPartitionedCall/StatefulPartitionedCall/StatefulPartitionedCall/predict/resnet_v2_50/block3/unit_6/bottleneck_v2/conv3/BiasAdd", "op": "_FusedConv2D", "input": ["StatefulPartitionedCall/sequential_6/Resnet50/StatefulPartitionedCall/StatefulPartitionedCall/StatefulPartitionedCall/predict/resnet_v2_50/block3/unit_6/bottleneck_v2/conv2/Relu", "Func/StatefulPartitionedCall/sequential_6/Resnet50/StatefulPartitionedCall/StatefulPartitionedCall/StatefulPartitionedCall/input/_1041", "Func/StatefulPartitionedCall/sequential_6/Resnet50/StatefulPartitionedCall/StatefulPartitionedCall/StatefulPartitionedCall/input/_1042"], "device": "/device:CPU:0", "attr": {"explicit_paddings": {"list": {}}, "epsilon": {"f": 0.0}, "T": {"type": "DT_FLOAT"}, "fused_ops": {"list": {"s": ["Qmlhc0FkZA=="]}}, "data_format": {"s": "TkhXQw=="}, "num_args": {"i": "1"}, "dilations": {"list": {"i": ["1", "1", "1", "1"]}}, "strides": {"list": {"i": ["1", "1", "1", "1"]}}, "use_cudnn_on_gpu": {"b": true}, "padding": {"s": "U0FNRQ=="}}}, {"name": "StatefulPartitionedCall/sequential_6/Resnet50/StatefulPartitionedCall/StatefulPartitionedCall/StatefulPartitionedCall/predict/resnet_v2_50/block3/unit_6/bottleneck_v2/add", "op": "AddV2", "input": ["StatefulPartitionedCall/sequential_6/Resnet50/StatefulPartitionedCall/StatefulPartitionedCall/StatefulPartitionedCall/predict/resnet_v2_50/block3/unit_6/bottleneck_v2/shortcut/MaxPool", "StatefulPartitionedCall/sequential_6/Resnet50/StatefulPartitionedCall/StatefulPartitionedCall/StatefulPartitionedCall/predict/resnet_v2_50/block3/unit_6/bottleneck_v2/conv3/BiasAdd"], "attr": {"T": {"type": "DT_FLOAT"}}}, {"name": "StatefulPartitionedCall/sequential_6/Resnet50/StatefulPartitionedCall/StatefulPartitionedCall/StatefulPartitionedCall/predict/resnet_v2_50/block4/unit_1/bottleneck_v2/preact/FusedBatchNormV3/Mul", "op": "Mul", "input": ["StatefulPartitionedCall/sequential_6/Resnet50/StatefulPartitionedCall/StatefulPartitionedCall/StatefulPartitionedCall/predict/resnet_v2_50/block3/unit_6/bottleneck_v2/add", "StatefulPartitionedCall/sequential_6/Resnet50/StatefulPartitionedCall/StatefulPartitionedCall/StatefulPartitionedCall/predict/resnet_v2_50/block4/unit_1/bottleneck_v2/preact/FusedBatchNormV3/Scaled"], "attr": {"T": {"type": "DT_FLOAT"}}}, {"name": "StatefulPartitionedCall/sequential_6/Resnet50/StatefulPartitionedCall/StatefulPartitionedCall/StatefulPartitionedCall/predict/resnet_v2_50/block4/unit_1/bottleneck_v2/preact/FusedBatchNormV3", "op": "Add", "input": ["StatefulPartitionedCall/sequential_6/Resnet50/StatefulPartitionedCall/StatefulPartitionedCall/StatefulPartitionedCall/predict/resnet_v2_50/block4/unit_1/bottleneck_v2/preact/FusedBatchNormV3/Mul", "StatefulPartitionedCall/sequential_6/Resnet50/StatefulPartitionedCall/StatefulPartitionedCall/StatefulPartitionedCall/predict/resnet_v2_50/block4/unit_1/bottleneck_v2/preact/FusedBatchNormV3/Offset"], "attr": {"T": {"type": "DT_FLOAT"}}}, {"name": "StatefulPartitionedCall/sequential_6/Resnet50/StatefulPartitionedCall/StatefulPartitionedCall/StatefulPartitionedCall/predict/resnet_v2_50/block4/unit_1/bottleneck_v2/preact/Relu", "op": "Relu", "input": ["StatefulPartitionedCall/sequential_6/Resnet50/StatefulPartitionedCall/StatefulPartitionedCall/StatefulPartitionedCall/predict/resnet_v2_50/block4/unit_1/bottleneck_v2/preact/FusedBatchNormV3"], "attr": {"T": {"type": "DT_FLOAT"}}}, {"name": "StatefulPartitionedCall/sequential_6/Resnet50/StatefulPartitionedCall/StatefulPartitionedCall/StatefulPartitionedCall/predict/resnet_v2_50/block4/unit_1/bottleneck_v2/shortcut/BiasAdd", "op": "_FusedConv2D", "input": ["StatefulPartitionedCall/sequential_6/Resnet50/StatefulPartitionedCall/StatefulPartitionedCall/StatefulPartitionedCall/predict/resnet_v2_50/block4/unit_1/bottleneck_v2/preact/Relu", "Func/StatefulPartitionedCall/sequential_6/Resnet50/StatefulPartitionedCall/StatefulPartitionedCall/StatefulPartitionedCall/input/_1047", "Func/StatefulPartitionedCall/sequential_6/Resnet50/StatefulPartitionedCall/StatefulPartitionedCall/StatefulPartitionedCall/input/_1048"], "device": "/device:CPU:0", "attr": {"dilations": {"list": {"i": ["1", "1", "1", "1"]}}, "strides": {"list": {"i": ["1", "1", "1", "1"]}}, "data_format": {"s": "TkhXQw=="}, "fused_ops": {"list": {"s": ["Qmlhc0FkZA=="]}}, "explicit_paddings": {"list": {}}, "epsilon": {"f": 0.0}, "padding": {"s": "U0FNRQ=="}, "use_cudnn_on_gpu": {"b": true}, "num_args": {"i": "1"}, "T": {"type": "DT_FLOAT"}}}, {"name": "StatefulPartitionedCall/sequential_6/Resnet50/StatefulPartitionedCall/StatefulPartitionedCall/StatefulPartitionedCall/predict/resnet_v2_50/block4/unit_1/bottleneck_v2/conv1/Relu", "op": "_FusedConv2D", "input": ["StatefulPartitionedCall/sequential_6/Resnet50/StatefulPartitionedCall/StatefulPartitionedCall/StatefulPartitionedCall/predict/resnet_v2_50/block4/unit_1/bottleneck_v2/preact/Relu", "StatefulPartitionedCall/sequential_6/Resnet50/StatefulPartitionedCall/StatefulPartitionedCall/StatefulPartitionedCall/predict/resnet_v2_50/block4/unit_1/bottleneck_v2/conv1/Conv2D_weights", "StatefulPartitionedCall/sequential_6/Resnet50/StatefulPartitionedCall/StatefulPartitionedCall/StatefulPartitionedCall/predict/resnet_v2_50/block4/unit_1/bottleneck_v2/conv1/Conv2D_bn_offset"], "device": "/device:CPU:0", "attr": {"fused_ops": {"list": {"s": ["Qmlhc0FkZA==", "UmVsdQ=="]}}, "dilations": {"list": {"i": ["1", "1", "1", "1"]}}, "padding": {"s": "U0FNRQ=="}, "explicit_paddings": {"list": {}}, "use_cudnn_on_gpu": {"b": true}, "data_format": {"s": "TkhXQw=="}, "strides": {"list": {"i": ["1", "1", "1", "1"]}}, "num_args": {"i": "1"}, "T": {"type": "DT_FLOAT"}, "epsilon": {"f": 0.0}}}, {"name": "StatefulPartitionedCall/sequential_6/Resnet50/StatefulPartitionedCall/StatefulPartitionedCall/StatefulPartitionedCall/predict/resnet_v2_50/block4/unit_1/bottleneck_v2/conv2/Relu", "op": "_FusedConv2D", "input": ["StatefulPartitionedCall/sequential_6/Resnet50/StatefulPartitionedCall/StatefulPartitionedCall/StatefulPartitionedCall/predict/resnet_v2_50/block4/unit_1/bottleneck_v2/conv1/Relu", "StatefulPartitionedCall/sequential_6/Resnet50/StatefulPartitionedCall/StatefulPartitionedCall/StatefulPartitionedCall/predict/resnet_v2_50/block4/unit_1/bottleneck_v2/conv2/Conv2D_weights", "StatefulPartitionedCall/sequential_6/Resnet50/StatefulPartitionedCall/StatefulPartitionedCall/StatefulPartitionedCall/predict/resnet_v2_50/block4/unit_1/bottleneck_v2/conv2/Conv2D_bn_offset"], "device": "/device:CPU:0", "attr": {"fused_ops": {"list": {"s": ["Qmlhc0FkZA==", "UmVsdQ=="]}}, "epsilon": {"f": 0.0}, "num_args": {"i": "1"}, "explicit_paddings": {"list": {}}, "dilations": {"list": {"i": ["1", "1", "1", "1"]}}, "padding": {"s": "U0FNRQ=="}, "data_format": {"s": "TkhXQw=="}, "strides": {"list": {"i": ["1", "1", "1", "1"]}}, "use_cudnn_on_gpu": {"b": true}, "T": {"type": "DT_FLOAT"}}}, {"name": "StatefulPartitionedCall/sequential_6/Resnet50/StatefulPartitionedCall/StatefulPartitionedCall/StatefulPartitionedCall/predict/resnet_v2_50/block4/unit_1/bottleneck_v2/conv3/BiasAdd", "op": "_FusedConv2D", "input": ["StatefulPartitionedCall/sequential_6/Resnet50/StatefulPartitionedCall/StatefulPartitionedCall/StatefulPartitionedCall/predict/resnet_v2_50/block4/unit_1/bottleneck_v2/conv2/Relu", "Func/StatefulPartitionedCall/sequential_6/Resnet50/StatefulPartitionedCall/StatefulPartitionedCall/StatefulPartitionedCall/input/_1059", "Func/StatefulPartitionedCall/sequential_6/Resnet50/StatefulPartitionedCall/StatefulPartitionedCall/StatefulPartitionedCall/input/_1060"], "device": "/device:CPU:0", "attr": {"padding": {"s": "U0FNRQ=="}, "epsilon": {"f": 0.0}, "explicit_paddings": {"list": {}}, "fused_ops": {"list": {"s": ["Qmlhc0FkZA=="]}}, "dilations": {"list": {"i": ["1", "1", "1", "1"]}}, "T": {"type": "DT_FLOAT"}, "num_args": {"i": "1"}, "strides": {"list": {"i": ["1", "1", "1", "1"]}}, "data_format": {"s": "TkhXQw=="}, "use_cudnn_on_gpu": {"b": true}}}, {"name": "StatefulPartitionedCall/sequential_6/Resnet50/StatefulPartitionedCall/StatefulPartitionedCall/StatefulPartitionedCall/predict/resnet_v2_50/block4/unit_1/bottleneck_v2/add", "op": "AddV2", "input": ["StatefulPartitionedCall/sequential_6/Resnet50/StatefulPartitionedCall/StatefulPartitionedCall/StatefulPartitionedCall/predict/resnet_v2_50/block4/unit_1/bottleneck_v2/shortcut/BiasAdd", "StatefulPartitionedCall/sequential_6/Resnet50/StatefulPartitionedCall/StatefulPartitionedCall/StatefulPartitionedCall/predict/resnet_v2_50/block4/unit_1/bottleneck_v2/conv3/BiasAdd"], "attr": {"T": {"type": "DT_FLOAT"}}}, {"name": "StatefulPartitionedCall/sequential_6/Resnet50/StatefulPartitionedCall/StatefulPartitionedCall/StatefulPartitionedCall/predict/resnet_v2_50/block4/unit_2/bottleneck_v2/preact/FusedBatchNormV3/Mul", "op": "Mul", "input": ["StatefulPartitionedCall/sequential_6/Resnet50/StatefulPartitionedCall/StatefulPartitionedCall/StatefulPartitionedCall/predict/resnet_v2_50/block4/unit_1/bottleneck_v2/add", "StatefulPartitionedCall/sequential_6/Resnet50/StatefulPartitionedCall/StatefulPartitionedCall/StatefulPartitionedCall/predict/resnet_v2_50/block4/unit_2/bottleneck_v2/preact/FusedBatchNormV3/Scaled"], "attr": {"T": {"type": "DT_FLOAT"}}}, {"name": "StatefulPartitionedCall/sequential_6/Resnet50/StatefulPartitionedCall/StatefulPartitionedCall/StatefulPartitionedCall/predict/resnet_v2_50/block4/unit_2/bottleneck_v2/preact/FusedBatchNormV3", "op": "Add", "input": ["StatefulPartitionedCall/sequential_6/Resnet50/StatefulPartitionedCall/StatefulPartitionedCall/StatefulPartitionedCall/predict/resnet_v2_50/block4/unit_2/bottleneck_v2/preact/FusedBatchNormV3/Mul", "StatefulPartitionedCall/sequential_6/Resnet50/StatefulPartitionedCall/StatefulPartitionedCall/StatefulPartitionedCall/predict/resnet_v2_50/block4/unit_2/bottleneck_v2/preact/FusedBatchNormV3/Offset"], "attr": {"T": {"type": "DT_FLOAT"}}}, {"name": "StatefulPartitionedCall/sequential_6/Resnet50/StatefulPartitionedCall/StatefulPartitionedCall/StatefulPartitionedCall/predict/resnet_v2_50/block4/unit_2/bottleneck_v2/preact/Relu", "op": "Relu", "input": ["StatefulPartitionedCall/sequential_6/Resnet50/StatefulPartitionedCall/StatefulPartitionedCall/StatefulPartitionedCall/predict/resnet_v2_50/block4/unit_2/bottleneck_v2/preact/FusedBatchNormV3"], "attr": {"T": {"type": "DT_FLOAT"}}}, {"name": "StatefulPartitionedCall/sequential_6/Resnet50/StatefulPartitionedCall/StatefulPartitionedCall/StatefulPartitionedCall/predict/resnet_v2_50/block4/unit_2/bottleneck_v2/conv1/Relu", "op": "_FusedConv2D", "input": ["StatefulPartitionedCall/sequential_6/Resnet50/StatefulPartitionedCall/StatefulPartitionedCall/StatefulPartitionedCall/predict/resnet_v2_50/block4/unit_2/bottleneck_v2/preact/Relu", "StatefulPartitionedCall/sequential_6/Resnet50/StatefulPartitionedCall/StatefulPartitionedCall/StatefulPartitionedCall/predict/resnet_v2_50/block4/unit_2/bottleneck_v2/conv1/Conv2D_weights", "StatefulPartitionedCall/sequential_6/Resnet50/StatefulPartitionedCall/StatefulPartitionedCall/StatefulPartitionedCall/predict/resnet_v2_50/block4/unit_2/bottleneck_v2/conv1/Conv2D_bn_offset"], "device": "/device:CPU:0", "attr": {"explicit_paddings": {"list": {}}, "num_args": {"i": "1"}, "dilations": {"list": {"i": ["1", "1", "1", "1"]}}, "T": {"type": "DT_FLOAT"}, "strides": {"list": {"i": ["1", "1", "1", "1"]}}, "epsilon": {"f": 0.0}, "use_cudnn_on_gpu": {"b": true}, "data_format": {"s": "TkhXQw=="}, "padding": {"s": "U0FNRQ=="}, "fused_ops": {"list": {"s": ["Qmlhc0FkZA==", "UmVsdQ=="]}}}}, {"name": "StatefulPartitionedCall/sequential_6/Resnet50/StatefulPartitionedCall/StatefulPartitionedCall/StatefulPartitionedCall/predict/resnet_v2_50/block4/unit_2/bottleneck_v2/conv2/Relu", "op": "_FusedConv2D", "input": ["StatefulPartitionedCall/sequential_6/Resnet50/StatefulPartitionedCall/StatefulPartitionedCall/StatefulPartitionedCall/predict/resnet_v2_50/block4/unit_2/bottleneck_v2/conv1/Relu", "StatefulPartitionedCall/sequential_6/Resnet50/StatefulPartitionedCall/StatefulPartitionedCall/StatefulPartitionedCall/predict/resnet_v2_50/block4/unit_2/bottleneck_v2/conv2/Conv2D_weights", "StatefulPartitionedCall/sequential_6/Resnet50/StatefulPartitionedCall/StatefulPartitionedCall/StatefulPartitionedCall/predict/resnet_v2_50/block4/unit_2/bottleneck_v2/conv2/Conv2D_bn_offset"], "device": "/device:CPU:0", "attr": {"dilations": {"list": {"i": ["1", "1", "1", "1"]}}, "T": {"type": "DT_FLOAT"}, "strides": {"list": {"i": ["1", "1", "1", "1"]}}, "use_cudnn_on_gpu": {"b": true}, "explicit_paddings": {"list": {}}, "data_format": {"s": "TkhXQw=="}, "num_args": {"i": "1"}, "fused_ops": {"list": {"s": ["Qmlhc0FkZA==", "UmVsdQ=="]}}, "padding": {"s": "U0FNRQ=="}, "epsilon": {"f": 0.0}}}, {"name": "StatefulPartitionedCall/sequential_6/Resnet50/StatefulPartitionedCall/StatefulPartitionedCall/StatefulPartitionedCall/predict/resnet_v2_50/block4/unit_2/bottleneck_v2/conv3/BiasAdd", "op": "_FusedConv2D", "input": ["StatefulPartitionedCall/sequential_6/Resnet50/StatefulPartitionedCall/StatefulPartitionedCall/StatefulPartitionedCall/predict/resnet_v2_50/block4/unit_2/bottleneck_v2/conv2/Relu", "Func/StatefulPartitionedCall/sequential_6/Resnet50/StatefulPartitionedCall/StatefulPartitionedCall/StatefulPartitionedCall/input/_1075", "Func/StatefulPartitionedCall/sequential_6/Resnet50/StatefulPartitionedCall/StatefulPartitionedCall/StatefulPartitionedCall/input/_1076"], "device": "/device:CPU:0", "attr": {"num_args": {"i": "1"}, "epsilon": {"f": 0.0}, "T": {"type": "DT_FLOAT"}, "fused_ops": {"list": {"s": ["Qmlhc0FkZA=="]}}, "strides": {"list": {"i": ["1", "1", "1", "1"]}}, "explicit_paddings": {"list": {}}, "data_format": {"s": "TkhXQw=="}, "dilations": {"list": {"i": ["1", "1", "1", "1"]}}, "use_cudnn_on_gpu": {"b": true}, "padding": {"s": "U0FNRQ=="}}}, {"name": "StatefulPartitionedCall/sequential_6/Resnet50/StatefulPartitionedCall/StatefulPartitionedCall/StatefulPartitionedCall/predict/resnet_v2_50/block4/unit_2/bottleneck_v2/add", "op": "AddV2", "input": ["StatefulPartitionedCall/sequential_6/Resnet50/StatefulPartitionedCall/StatefulPartitionedCall/StatefulPartitionedCall/predict/resnet_v2_50/block4/unit_1/bottleneck_v2/add", "StatefulPartitionedCall/sequential_6/Resnet50/StatefulPartitionedCall/StatefulPartitionedCall/StatefulPartitionedCall/predict/resnet_v2_50/block4/unit_2/bottleneck_v2/conv3/BiasAdd"], "attr": {"T": {"type": "DT_FLOAT"}}}, {"name": "StatefulPartitionedCall/sequential_6/Resnet50/StatefulPartitionedCall/StatefulPartitionedCall/StatefulPartitionedCall/predict/resnet_v2_50/block4/unit_3/bottleneck_v2/preact/FusedBatchNormV3/Mul", "op": "Mul", "input": ["StatefulPartitionedCall/sequential_6/Resnet50/StatefulPartitionedCall/StatefulPartitionedCall/StatefulPartitionedCall/predict/resnet_v2_50/block4/unit_2/bottleneck_v2/add", "StatefulPartitionedCall/sequential_6/Resnet50/StatefulPartitionedCall/StatefulPartitionedCall/StatefulPartitionedCall/predict/resnet_v2_50/block4/unit_3/bottleneck_v2/preact/FusedBatchNormV3/Scaled"], "attr": {"T": {"type": "DT_FLOAT"}}}, {"name": "StatefulPartitionedCall/sequential_6/Resnet50/StatefulPartitionedCall/StatefulPartitionedCall/StatefulPartitionedCall/predict/resnet_v2_50/block4/unit_3/bottleneck_v2/preact/FusedBatchNormV3", "op": "Add", "input": ["StatefulPartitionedCall/sequential_6/Resnet50/StatefulPartitionedCall/StatefulPartitionedCall/StatefulPartitionedCall/predict/resnet_v2_50/block4/unit_3/bottleneck_v2/preact/FusedBatchNormV3/Mul", "StatefulPartitionedCall/sequential_6/Resnet50/StatefulPartitionedCall/StatefulPartitionedCall/StatefulPartitionedCall/predict/resnet_v2_50/block4/unit_3/bottleneck_v2/preact/FusedBatchNormV3/Offset"], "attr": {"T": {"type": "DT_FLOAT"}}}, {"name": "StatefulPartitionedCall/sequential_6/Resnet50/StatefulPartitionedCall/StatefulPartitionedCall/StatefulPartitionedCall/predict/resnet_v2_50/block4/unit_3/bottleneck_v2/preact/Relu", "op": "Relu", "input": ["StatefulPartitionedCall/sequential_6/Resnet50/StatefulPartitionedCall/StatefulPartitionedCall/StatefulPartitionedCall/predict/resnet_v2_50/block4/unit_3/bottleneck_v2/preact/FusedBatchNormV3"], "attr": {"T": {"type": "DT_FLOAT"}}}, {"name": "StatefulPartitionedCall/sequential_6/Resnet50/StatefulPartitionedCall/StatefulPartitionedCall/StatefulPartitionedCall/predict/resnet_v2_50/block4/unit_3/bottleneck_v2/conv1/Relu", "op": "_FusedConv2D", "input": ["StatefulPartitionedCall/sequential_6/Resnet50/StatefulPartitionedCall/StatefulPartitionedCall/StatefulPartitionedCall/predict/resnet_v2_50/block4/unit_3/bottleneck_v2/preact/Relu", "StatefulPartitionedCall/sequential_6/Resnet50/StatefulPartitionedCall/StatefulPartitionedCall/StatefulPartitionedCall/predict/resnet_v2_50/block4/unit_3/bottleneck_v2/conv1/Conv2D_weights", "StatefulPartitionedCall/sequential_6/Resnet50/StatefulPartitionedCall/StatefulPartitionedCall/StatefulPartitionedCall/predict/resnet_v2_50/block4/unit_3/bottleneck_v2/conv1/Conv2D_bn_offset"], "device": "/device:CPU:0", "attr": {"T": {"type": "DT_FLOAT"}, "explicit_paddings": {"list": {}}, "epsilon": {"f": 0.0}, "num_args": {"i": "1"}, "fused_ops": {"list": {"s": ["Qmlhc0FkZA==", "UmVsdQ=="]}}, "padding": {"s": "U0FNRQ=="}, "dilations": {"list": {"i": ["1", "1", "1", "1"]}}, "data_format": {"s": "TkhXQw=="}, "strides": {"list": {"i": ["1", "1", "1", "1"]}}, "use_cudnn_on_gpu": {"b": true}}}, {"name": "StatefulPartitionedCall/sequential_6/Resnet50/StatefulPartitionedCall/StatefulPartitionedCall/StatefulPartitionedCall/predict/resnet_v2_50/block4/unit_3/bottleneck_v2/conv2/Relu", "op": "_FusedConv2D", "input": ["StatefulPartitionedCall/sequential_6/Resnet50/StatefulPartitionedCall/StatefulPartitionedCall/StatefulPartitionedCall/predict/resnet_v2_50/block4/unit_3/bottleneck_v2/conv1/Relu", "StatefulPartitionedCall/sequential_6/Resnet50/StatefulPartitionedCall/StatefulPartitionedCall/StatefulPartitionedCall/predict/resnet_v2_50/block4/unit_3/bottleneck_v2/conv2/Conv2D_weights", "StatefulPartitionedCall/sequential_6/Resnet50/StatefulPartitionedCall/StatefulPartitionedCall/StatefulPartitionedCall/predict/resnet_v2_50/block4/unit_3/bottleneck_v2/conv2/Conv2D_bn_offset"], "device": "/device:CPU:0", "attr": {"dilations": {"list": {"i": ["1", "1", "1", "1"]}}, "fused_ops": {"list": {"s": ["Qmlhc0FkZA==", "UmVsdQ=="]}}, "padding": {"s": "U0FNRQ=="}, "epsilon": {"f": 0.0}, "data_format": {"s": "TkhXQw=="}, "strides": {"list": {"i": ["1", "1", "1", "1"]}}, "T": {"type": "DT_FLOAT"}, "num_args": {"i": "1"}, "use_cudnn_on_gpu": {"b": true}, "explicit_paddings": {"list": {}}}}, {"name": "StatefulPartitionedCall/sequential_6/Resnet50/StatefulPartitionedCall/StatefulPartitionedCall/StatefulPartitionedCall/predict/resnet_v2_50/block4/unit_3/bottleneck_v2/conv3/BiasAdd", "op": "_FusedConv2D", "input": ["StatefulPartitionedCall/sequential_6/Resnet50/StatefulPartitionedCall/StatefulPartitionedCall/StatefulPartitionedCall/predict/resnet_v2_50/block4/unit_3/bottleneck_v2/conv2/Relu", "Func/StatefulPartitionedCall/sequential_6/Resnet50/StatefulPartitionedCall/StatefulPartitionedCall/StatefulPartitionedCall/input/_1091", "Func/StatefulPartitionedCall/sequential_6/Resnet50/StatefulPartitionedCall/StatefulPartitionedCall/StatefulPartitionedCall/input/_1092"], "device": "/device:CPU:0", "attr": {"padding": {"s": "U0FNRQ=="}, "fused_ops": {"list": {"s": ["Qmlhc0FkZA=="]}}, "data_format": {"s": "TkhXQw=="}, "epsilon": {"f": 0.0}, "use_cudnn_on_gpu": {"b": true}, "strides": {"list": {"i": ["1", "1", "1", "1"]}}, "dilations": {"list": {"i": ["1", "1", "1", "1"]}}, "num_args": {"i": "1"}, "explicit_paddings": {"list": {}}, "T": {"type": "DT_FLOAT"}}}, {"name": "StatefulPartitionedCall/sequential_6/Resnet50/StatefulPartitionedCall/StatefulPartitionedCall/StatefulPartitionedCall/predict/resnet_v2_50/block4/unit_3/bottleneck_v2/add", "op": "AddV2", "input": ["StatefulPartitionedCall/sequential_6/Resnet50/StatefulPartitionedCall/StatefulPartitionedCall/StatefulPartitionedCall/predict/resnet_v2_50/block4/unit_2/bottleneck_v2/add", "StatefulPartitionedCall/sequential_6/Resnet50/StatefulPartitionedCall/StatefulPartitionedCall/StatefulPartitionedCall/predict/resnet_v2_50/block4/unit_3/bottleneck_v2/conv3/BiasAdd"], "attr": {"T": {"type": "DT_FLOAT"}}}, {"name": "StatefulPartitionedCall/sequential_6/Resnet50/StatefulPartitionedCall/StatefulPartitionedCall/StatefulPartitionedCall/predict/resnet_v2_50/postnorm/FusedBatchNormV3/Mul", "op": "Mul", "input": ["StatefulPartitionedCall/sequential_6/Resnet50/StatefulPartitionedCall/StatefulPartitionedCall/StatefulPartitionedCall/predict/resnet_v2_50/block4/unit_3/bottleneck_v2/add", "StatefulPartitionedCall/sequential_6/Resnet50/StatefulPartitionedCall/StatefulPartitionedCall/StatefulPartitionedCall/predict/resnet_v2_50/postnorm/FusedBatchNormV3/Scaled"], "attr": {"T": {"type": "DT_FLOAT"}}}, {"name": "StatefulPartitionedCall/sequential_6/Resnet50/StatefulPartitionedCall/StatefulPartitionedCall/StatefulPartitionedCall/predict/resnet_v2_50/postnorm/FusedBatchNormV3", "op": "Add", "input": ["StatefulPartitionedCall/sequential_6/Resnet50/StatefulPartitionedCall/StatefulPartitionedCall/StatefulPartitionedCall/predict/resnet_v2_50/postnorm/FusedBatchNormV3/Mul", "StatefulPartitionedCall/sequential_6/Resnet50/StatefulPartitionedCall/StatefulPartitionedCall/StatefulPartitionedCall/predict/resnet_v2_50/postnorm/FusedBatchNormV3/Offset"], "attr": {"T": {"type": "DT_FLOAT"}}}, {"name": "StatefulPartitionedCall/sequential_6/Resnet50/StatefulPartitionedCall/StatefulPartitionedCall/StatefulPartitionedCall/predict/resnet_v2_50/postnorm/Relu", "op": "Relu", "input": ["StatefulPartitionedCall/sequential_6/Resnet50/StatefulPartitionedCall/StatefulPartitionedCall/StatefulPartitionedCall/predict/resnet_v2_50/postnorm/FusedBatchNormV3"], "attr": {"T": {"type": "DT_FLOAT"}}}, {"name": "StatefulPartitionedCall/sequential_6/Resnet50/StatefulPartitionedCall/StatefulPartitionedCall/StatefulPartitionedCall/predict/resnet_v2_50/pool5", "op": "Mean", "input": ["StatefulPartitionedCall/sequential_6/Resnet50/StatefulPartitionedCall/StatefulPartitionedCall/StatefulPartitionedCall/predict/resnet_v2_50/postnorm/Relu", "StatefulPartitionedCall/sequential_6/Resnet50/StatefulPartitionedCall/StatefulPartitionedCall/StatefulPartitionedCall/predict/resnet_v2_50/pool5/reduction_indices"], "attr": {"T": {"type": "DT_FLOAT"}, "Tidx": {"type": "DT_INT32"}, "keep_dims": {"b": true}}}, {"name": "StatefulPartitionedCall/sequential_6/Resnet50/StatefulPartitionedCall/StatefulPartitionedCall/StatefulPartitionedCall/predict/feature_vector/SpatialSqueeze", "op": "Squeeze", "input": ["StatefulPartitionedCall/sequential_6/Resnet50/StatefulPartitionedCall/StatefulPartitionedCall/StatefulPartitionedCall/predict/resnet_v2_50/pool5"], "attr": {"squeeze_dims": {"list": {"i": ["1", "2"]}}, "T": {"type": "DT_FLOAT"}}}, {"name": "StatefulPartitionedCall/sequential_6/dense_6/BiasAdd", "op": "_FusedMatMul", "input": ["StatefulPartitionedCall/sequential_6/Resnet50/StatefulPartitionedCall/StatefulPartitionedCall/StatefulPartitionedCall/predict/feature_vector/SpatialSqueeze", "StatefulPartitionedCall/sequential_6/dense_6/MatMul/ReadVariableOp", "StatefulPartitionedCall/sequential_6/dense_6/BiasAdd/ReadVariableOp"], "device": "/device:CPU:0", "attr": {"fused_ops": {"list": {"s": ["Qmlhc0FkZA=="]}}, "transpose_b": {"b": false}, "num_args": {"i": "1"}, "T": {"type": "DT_FLOAT"}, "transpose_a": {"b": false}, "epsilon": {"f": 0.0}}}, {"name": "StatefulPartitionedCall/sequential_6/dense_6/Softmax", "op": "Softmax", "input": ["StatefulPartitionedCall/sequential_6/dense_6/BiasAdd"], "attr": {"T": {"type": "DT_FLOAT"}}}, {"name": "Identity", "op": "Identity", "input": ["StatefulPartitionedCall/sequential_6/dense_6/Softmax"], "attr": {"T": {"type": "DT_FLOAT"}}}], "library": {}, "versions": {"producer": 987}}, "weightsManifest": [{"paths": ["group1-shard1of23.bin", "group1-shard2of23.bin", "group1-shard3of23.bin", "group1-shard4of23.bin", "group1-shard5of23.bin", "group1-shard6of23.bin", "group1-shard7of23.bin", "group1-shard8of23.bin", "group1-shard9of23.bin", "group1-shard10of23.bin", "group1-shard11of23.bin", "group1-shard12of23.bin", "group1-shard13of23.bin", "group1-shard14of23.bin", "group1-shard15of23.bin", "group1-shard16of23.bin", "group1-shard17of23.bin", "group1-shard18of23.bin", "group1-shard19of23.bin", "group1-shard20of23.bin", "group1-shard21of23.bin", "group1-shard22of23.bin", "group1-shard23of23.bin"], "weights": [{"name": "StatefulPartitionedCall/sequential_6/dense_6/MatMul/ReadVariableOp", "shape": [2048, 108], "dtype": "float32"}, {"name": "StatefulPartitionedCall/sequential_6/dense_6/BiasAdd/ReadVariableOp", "shape": [108], "dtype": "float32"}, {"name": "StatefulPartitionedCall/sequential_6/Resnet50/StatefulPartitionedCall/StatefulPartitionedCall/StatefulPartitionedCall/predict/resnet_v2_50/block1/unit_1/bottleneck_v2/conv1/Conv2D_weights", "shape": [1, 1, 64, 64], "dtype": "float32"}, {"name": "StatefulPartitionedCall/sequential_6/Resnet50/StatefulPartitionedCall/StatefulPartitionedCall/StatefulPartitionedCall/predict/resnet_v2_50/block1/unit_1/bottleneck_v2/conv1/Conv2D_bn_offset", "shape": [64], "dtype": "float32"}, {"name": "StatefulPartitionedCall/sequential_6/Resnet50/StatefulPartitionedCall/StatefulPartitionedCall/StatefulPartitionedCall/predict/resnet_v2_50/block1/unit_1/bottleneck_v2/conv2/Conv2D_weights", "shape": [3, 3, 64, 64], "dtype": "float32"}, {"name": "StatefulPartitionedCall/sequential_6/Resnet50/StatefulPartitionedCall/StatefulPartitionedCall/StatefulPartitionedCall/predict/resnet_v2_50/block1/unit_1/bottleneck_v2/conv2/Conv2D_bn_offset", "shape": [64], "dtype": "float32"}, {"name": "StatefulPartitionedCall/sequential_6/Resnet50/StatefulPartitionedCall/StatefulPartitionedCall/StatefulPartitionedCall/predict/resnet_v2_50/block1/unit_2/bottleneck_v2/conv1/Conv2D_weights", "shape": [1, 1, 256, 64], "dtype": "float32"}, {"name": "StatefulPartitionedCall/sequential_6/Resnet50/StatefulPartitionedCall/StatefulPartitionedCall/StatefulPartitionedCall/predict/resnet_v2_50/block1/unit_2/bottleneck_v2/conv1/Conv2D_bn_offset", "shape": [64], "dtype": "float32"}, {"name": "StatefulPartitionedCall/sequential_6/Resnet50/StatefulPartitionedCall/StatefulPartitionedCall/StatefulPartitionedCall/predict/resnet_v2_50/block1/unit_2/bottleneck_v2/conv2/Conv2D_weights", "shape": [3, 3, 64, 64], "dtype": "float32"}, {"name": "StatefulPartitionedCall/sequential_6/Resnet50/StatefulPartitionedCall/StatefulPartitionedCall/StatefulPartitionedCall/predict/resnet_v2_50/block1/unit_2/bottleneck_v2/conv2/Conv2D_bn_offset", "shape": [64], "dtype": "float32"}, {"name": "StatefulPartitionedCall/sequential_6/Resnet50/StatefulPartitionedCall/StatefulPartitionedCall/StatefulPartitionedCall/predict/resnet_v2_50/block1/unit_3/bottleneck_v2/conv1/Conv2D_weights", "shape": [1, 1, 256, 64], "dtype": "float32"}, {"name": "StatefulPartitionedCall/sequential_6/Resnet50/StatefulPartitionedCall/StatefulPartitionedCall/StatefulPartitionedCall/predict/resnet_v2_50/block1/unit_3/bottleneck_v2/conv1/Conv2D_bn_offset", "shape": [64], "dtype": "float32"}, {"name": "StatefulPartitionedCall/sequential_6/Resnet50/StatefulPartitionedCall/StatefulPartitionedCall/StatefulPartitionedCall/predict/resnet_v2_50/block1/unit_3/bottleneck_v2/conv2/Conv2D_weights", "shape": [3, 3, 64, 64], "dtype": "float32"}, {"name": "StatefulPartitionedCall/sequential_6/Resnet50/StatefulPartitionedCall/StatefulPartitionedCall/StatefulPartitionedCall/predict/resnet_v2_50/block1/unit_3/bottleneck_v2/conv2/Conv2D_bn_offset", "shape": [64], "dtype": "float32"}, {"name": "StatefulPartitionedCall/sequential_6/Resnet50/StatefulPartitionedCall/StatefulPartitionedCall/StatefulPartitionedCall/predict/resnet_v2_50/block2/unit_1/bottleneck_v2/conv1/Conv2D_weights", "shape": [1, 1, 256, 128], "dtype": "float32"}, {"name": "StatefulPartitionedCall/sequential_6/Resnet50/StatefulPartitionedCall/StatefulPartitionedCall/StatefulPartitionedCall/predict/resnet_v2_50/block2/unit_1/bottleneck_v2/conv1/Conv2D_bn_offset", "shape": [128], "dtype": "float32"}, {"name": "StatefulPartitionedCall/sequential_6/Resnet50/StatefulPartitionedCall/StatefulPartitionedCall/StatefulPartitionedCall/predict/resnet_v2_50/block2/unit_1/bottleneck_v2/conv2/Conv2D_weights", "shape": [3, 3, 128, 128], "dtype": "float32"}, {"name": "StatefulPartitionedCall/sequential_6/Resnet50/StatefulPartitionedCall/StatefulPartitionedCall/StatefulPartitionedCall/predict/resnet_v2_50/block2/unit_1/bottleneck_v2/conv2/Conv2D_bn_offset", "shape": [128], "dtype": "float32"}, {"name": "StatefulPartitionedCall/sequential_6/Resnet50/StatefulPartitionedCall/StatefulPartitionedCall/StatefulPartitionedCall/predict/resnet_v2_50/block2/unit_2/bottleneck_v2/conv1/Conv2D_weights", "shape": [1, 1, 512, 128], "dtype": "float32"}, {"name": "StatefulPartitionedCall/sequential_6/Resnet50/StatefulPartitionedCall/StatefulPartitionedCall/StatefulPartitionedCall/predict/resnet_v2_50/block2/unit_2/bottleneck_v2/conv1/Conv2D_bn_offset", "shape": [128], "dtype": "float32"}, {"name": "StatefulPartitionedCall/sequential_6/Resnet50/StatefulPartitionedCall/StatefulPartitionedCall/StatefulPartitionedCall/predict/resnet_v2_50/block2/unit_2/bottleneck_v2/conv2/Conv2D_weights", "shape": [3, 3, 128, 128], "dtype": "float32"}, {"name": "StatefulPartitionedCall/sequential_6/Resnet50/StatefulPartitionedCall/StatefulPartitionedCall/StatefulPartitionedCall/predict/resnet_v2_50/block2/unit_2/bottleneck_v2/conv2/Conv2D_bn_offset", "shape": [128], "dtype": "float32"}, {"name": "StatefulPartitionedCall/sequential_6/Resnet50/StatefulPartitionedCall/StatefulPartitionedCall/StatefulPartitionedCall/predict/resnet_v2_50/block2/unit_3/bottleneck_v2/conv1/Conv2D_weights", "shape": [1, 1, 512, 128], "dtype": "float32"}, {"name": "StatefulPartitionedCall/sequential_6/Resnet50/StatefulPartitionedCall/StatefulPartitionedCall/StatefulPartitionedCall/predict/resnet_v2_50/block2/unit_3/bottleneck_v2/conv1/Conv2D_bn_offset", "shape": [128], "dtype": "float32"}, {"name": "StatefulPartitionedCall/sequential_6/Resnet50/StatefulPartitionedCall/StatefulPartitionedCall/StatefulPartitionedCall/predict/resnet_v2_50/block2/unit_3/bottleneck_v2/conv2/Conv2D_weights", "shape": [3, 3, 128, 128], "dtype": "float32"}, {"name": "StatefulPartitionedCall/sequential_6/Resnet50/StatefulPartitionedCall/StatefulPartitionedCall/StatefulPartitionedCall/predict/resnet_v2_50/block2/unit_3/bottleneck_v2/conv2/Conv2D_bn_offset", "shape": [128], "dtype": "float32"}, {"name": "StatefulPartitionedCall/sequential_6/Resnet50/StatefulPartitionedCall/StatefulPartitionedCall/StatefulPartitionedCall/predict/resnet_v2_50/block2/unit_4/bottleneck_v2/conv1/Conv2D_weights", "shape": [1, 1, 512, 128], "dtype": "float32"}, {"name": "StatefulPartitionedCall/sequential_6/Resnet50/StatefulPartitionedCall/StatefulPartitionedCall/StatefulPartitionedCall/predict/resnet_v2_50/block2/unit_4/bottleneck_v2/conv1/Conv2D_bn_offset", "shape": [128], "dtype": "float32"}, {"name": "StatefulPartitionedCall/sequential_6/Resnet50/StatefulPartitionedCall/StatefulPartitionedCall/StatefulPartitionedCall/predict/resnet_v2_50/block2/unit_4/bottleneck_v2/conv2/Conv2D_weights", "shape": [3, 3, 128, 128], "dtype": "float32"}, {"name": "StatefulPartitionedCall/sequential_6/Resnet50/StatefulPartitionedCall/StatefulPartitionedCall/StatefulPartitionedCall/predict/resnet_v2_50/block2/unit_4/bottleneck_v2/conv2/Conv2D_bn_offset", "shape": [128], "dtype": "float32"}, {"name": "StatefulPartitionedCall/sequential_6/Resnet50/StatefulPartitionedCall/StatefulPartitionedCall/StatefulPartitionedCall/predict/resnet_v2_50/block3/unit_1/bottleneck_v2/conv1/Conv2D_weights", "shape": [1, 1, 512, 256], "dtype": "float32"}, {"name": "StatefulPartitionedCall/sequential_6/Resnet50/StatefulPartitionedCall/StatefulPartitionedCall/StatefulPartitionedCall/predict/resnet_v2_50/block3/unit_1/bottleneck_v2/conv1/Conv2D_bn_offset", "shape": [256], "dtype": "float32"}, {"name": "StatefulPartitionedCall/sequential_6/Resnet50/StatefulPartitionedCall/StatefulPartitionedCall/StatefulPartitionedCall/predict/resnet_v2_50/block3/unit_1/bottleneck_v2/conv2/Conv2D_weights", "shape": [3, 3, 256, 256], "dtype": "float32"}, {"name": "StatefulPartitionedCall/sequential_6/Resnet50/StatefulPartitionedCall/StatefulPartitionedCall/StatefulPartitionedCall/predict/resnet_v2_50/block3/unit_1/bottleneck_v2/conv2/Conv2D_bn_offset", "shape": [256], "dtype": "float32"}, {"name": "StatefulPartitionedCall/sequential_6/Resnet50/StatefulPartitionedCall/StatefulPartitionedCall/StatefulPartitionedCall/predict/resnet_v2_50/block3/unit_2/bottleneck_v2/conv1/Conv2D_weights", "shape": [1, 1, 1024, 256], "dtype": "float32"}, {"name": "StatefulPartitionedCall/sequential_6/Resnet50/StatefulPartitionedCall/StatefulPartitionedCall/StatefulPartitionedCall/predict/resnet_v2_50/block3/unit_2/bottleneck_v2/conv1/Conv2D_bn_offset", "shape": [256], "dtype": "float32"}, {"name": "StatefulPartitionedCall/sequential_6/Resnet50/StatefulPartitionedCall/StatefulPartitionedCall/StatefulPartitionedCall/predict/resnet_v2_50/block3/unit_2/bottleneck_v2/conv2/Conv2D_weights", "shape": [3, 3, 256, 256], "dtype": "float32"}, {"name": "StatefulPartitionedCall/sequential_6/Resnet50/StatefulPartitionedCall/StatefulPartitionedCall/StatefulPartitionedCall/predict/resnet_v2_50/block3/unit_2/bottleneck_v2/conv2/Conv2D_bn_offset", "shape": [256], "dtype": "float32"}, {"name": "StatefulPartitionedCall/sequential_6/Resnet50/StatefulPartitionedCall/StatefulPartitionedCall/StatefulPartitionedCall/predict/resnet_v2_50/block3/unit_3/bottleneck_v2/conv1/Conv2D_weights", "shape": [1, 1, 1024, 256], "dtype": "float32"}, {"name": "StatefulPartitionedCall/sequential_6/Resnet50/StatefulPartitionedCall/StatefulPartitionedCall/StatefulPartitionedCall/predict/resnet_v2_50/block3/unit_3/bottleneck_v2/conv1/Conv2D_bn_offset", "shape": [256], "dtype": "float32"}, {"name": "StatefulPartitionedCall/sequential_6/Resnet50/StatefulPartitionedCall/StatefulPartitionedCall/StatefulPartitionedCall/predict/resnet_v2_50/block3/unit_3/bottleneck_v2/conv2/Conv2D_weights", "shape": [3, 3, 256, 256], "dtype": "float32"}, {"name": "StatefulPartitionedCall/sequential_6/Resnet50/StatefulPartitionedCall/StatefulPartitionedCall/StatefulPartitionedCall/predict/resnet_v2_50/block3/unit_3/bottleneck_v2/conv2/Conv2D_bn_offset", "shape": [256], "dtype": "float32"}, {"name": "StatefulPartitionedCall/sequential_6/Resnet50/StatefulPartitionedCall/StatefulPartitionedCall/StatefulPartitionedCall/predict/resnet_v2_50/block3/unit_4/bottleneck_v2/conv1/Conv2D_weights", "shape": [1, 1, 1024, 256], "dtype": "float32"}, {"name": "StatefulPartitionedCall/sequential_6/Resnet50/StatefulPartitionedCall/StatefulPartitionedCall/StatefulPartitionedCall/predict/resnet_v2_50/block3/unit_4/bottleneck_v2/conv1/Conv2D_bn_offset", "shape": [256], "dtype": "float32"}, {"name": "StatefulPartitionedCall/sequential_6/Resnet50/StatefulPartitionedCall/StatefulPartitionedCall/StatefulPartitionedCall/predict/resnet_v2_50/block3/unit_4/bottleneck_v2/conv2/Conv2D_weights", "shape": [3, 3, 256, 256], "dtype": "float32"}, {"name": "StatefulPartitionedCall/sequential_6/Resnet50/StatefulPartitionedCall/StatefulPartitionedCall/StatefulPartitionedCall/predict/resnet_v2_50/block3/unit_4/bottleneck_v2/conv2/Conv2D_bn_offset", "shape": [256], "dtype": "float32"}, {"name": "StatefulPartitionedCall/sequential_6/Resnet50/StatefulPartitionedCall/StatefulPartitionedCall/StatefulPartitionedCall/predict/resnet_v2_50/block3/unit_5/bottleneck_v2/conv1/Conv2D_weights", "shape": [1, 1, 1024, 256], "dtype": "float32"}, {"name": "StatefulPartitionedCall/sequential_6/Resnet50/StatefulPartitionedCall/StatefulPartitionedCall/StatefulPartitionedCall/predict/resnet_v2_50/block3/unit_5/bottleneck_v2/conv1/Conv2D_bn_offset", "shape": [256], "dtype": "float32"}, {"name": "StatefulPartitionedCall/sequential_6/Resnet50/StatefulPartitionedCall/StatefulPartitionedCall/StatefulPartitionedCall/predict/resnet_v2_50/block3/unit_5/bottleneck_v2/conv2/Conv2D_weights", "shape": [3, 3, 256, 256], "dtype": "float32"}, {"name": "StatefulPartitionedCall/sequential_6/Resnet50/StatefulPartitionedCall/StatefulPartitionedCall/StatefulPartitionedCall/predict/resnet_v2_50/block3/unit_5/bottleneck_v2/conv2/Conv2D_bn_offset", "shape": [256], "dtype": "float32"}, {"name": "StatefulPartitionedCall/sequential_6/Resnet50/StatefulPartitionedCall/StatefulPartitionedCall/StatefulPartitionedCall/predict/resnet_v2_50/block3/unit_6/bottleneck_v2/conv1/Conv2D_weights", "shape": [1, 1, 1024, 256], "dtype": "float32"}, {"name": "StatefulPartitionedCall/sequential_6/Resnet50/StatefulPartitionedCall/StatefulPartitionedCall/StatefulPartitionedCall/predict/resnet_v2_50/block3/unit_6/bottleneck_v2/conv1/Conv2D_bn_offset", "shape": [256], "dtype": "float32"}, {"name": "StatefulPartitionedCall/sequential_6/Resnet50/StatefulPartitionedCall/StatefulPartitionedCall/StatefulPartitionedCall/predict/resnet_v2_50/block3/unit_6/bottleneck_v2/conv2/Conv2D_weights", "shape": [3, 3, 256, 256], "dtype": "float32"}, {"name": "StatefulPartitionedCall/sequential_6/Resnet50/StatefulPartitionedCall/StatefulPartitionedCall/StatefulPartitionedCall/predict/resnet_v2_50/block3/unit_6/bottleneck_v2/conv2/Conv2D_bn_offset", "shape": [256], "dtype": "float32"}, {"name": "StatefulPartitionedCall/sequential_6/Resnet50/StatefulPartitionedCall/StatefulPartitionedCall/StatefulPartitionedCall/predict/resnet_v2_50/block4/unit_1/bottleneck_v2/conv1/Conv2D_weights", "shape": [1, 1, 1024, 512], "dtype": "float32"}, {"name": "StatefulPartitionedCall/sequential_6/Resnet50/StatefulPartitionedCall/StatefulPartitionedCall/StatefulPartitionedCall/predict/resnet_v2_50/block4/unit_1/bottleneck_v2/conv1/Conv2D_bn_offset", "shape": [512], "dtype": "float32"}, {"name": "StatefulPartitionedCall/sequential_6/Resnet50/StatefulPartitionedCall/StatefulPartitionedCall/StatefulPartitionedCall/predict/resnet_v2_50/block4/unit_1/bottleneck_v2/conv2/Conv2D_weights", "shape": [3, 3, 512, 512], "dtype": "float32"}, {"name": "StatefulPartitionedCall/sequential_6/Resnet50/StatefulPartitionedCall/StatefulPartitionedCall/StatefulPartitionedCall/predict/resnet_v2_50/block4/unit_1/bottleneck_v2/conv2/Conv2D_bn_offset", "shape": [512], "dtype": "float32"}, {"name": "StatefulPartitionedCall/sequential_6/Resnet50/StatefulPartitionedCall/StatefulPartitionedCall/StatefulPartitionedCall/predict/resnet_v2_50/block4/unit_2/bottleneck_v2/conv1/Conv2D_weights", "shape": [1, 1, 2048, 512], "dtype": "float32"}, {"name": "StatefulPartitionedCall/sequential_6/Resnet50/StatefulPartitionedCall/StatefulPartitionedCall/StatefulPartitionedCall/predict/resnet_v2_50/block4/unit_2/bottleneck_v2/conv1/Conv2D_bn_offset", "shape": [512], "dtype": "float32"}, {"name": "StatefulPartitionedCall/sequential_6/Resnet50/StatefulPartitionedCall/StatefulPartitionedCall/StatefulPartitionedCall/predict/resnet_v2_50/block4/unit_2/bottleneck_v2/conv2/Conv2D_weights", "shape": [3, 3, 512, 512], "dtype": "float32"}, {"name": "StatefulPartitionedCall/sequential_6/Resnet50/StatefulPartitionedCall/StatefulPartitionedCall/StatefulPartitionedCall/predict/resnet_v2_50/block4/unit_2/bottleneck_v2/conv2/Conv2D_bn_offset", "shape": [512], "dtype": "float32"}, {"name": "StatefulPartitionedCall/sequential_6/Resnet50/StatefulPartitionedCall/StatefulPartitionedCall/StatefulPartitionedCall/predict/resnet_v2_50/block4/unit_3/bottleneck_v2/conv1/Conv2D_weights", "shape": [1, 1, 2048, 512], "dtype": "float32"}, {"name": "StatefulPartitionedCall/sequential_6/Resnet50/StatefulPartitionedCall/StatefulPartitionedCall/StatefulPartitionedCall/predict/resnet_v2_50/block4/unit_3/bottleneck_v2/conv1/Conv2D_bn_offset", "shape": [512], "dtype": "float32"}, {"name": "StatefulPartitionedCall/sequential_6/Resnet50/StatefulPartitionedCall/StatefulPartitionedCall/StatefulPartitionedCall/predict/resnet_v2_50/block4/unit_3/bottleneck_v2/conv2/Conv2D_weights", "shape": [3, 3, 512, 512], "dtype": "float32"}, {"name": "StatefulPartitionedCall/sequential_6/Resnet50/StatefulPartitionedCall/StatefulPartitionedCall/StatefulPartitionedCall/predict/resnet_v2_50/block4/unit_3/bottleneck_v2/conv2/Conv2D_bn_offset", "shape": [512], "dtype": "float32"}, {"name": "Func/StatefulPartitionedCall/sequential_6/Resnet50/StatefulPartitionedCall/StatefulPartitionedCall/StatefulPartitionedCall/input/_1047", "shape": [1, 1, 1024, 2048], "dtype": "float32"}, {"name": "Func/StatefulPartitionedCall/sequential_6/Resnet50/StatefulPartitionedCall/StatefulPartitionedCall/StatefulPartitionedCall/input/_1048", "shape": [2048], "dtype": "float32"}, {"name": "Func/StatefulPartitionedCall/sequential_6/Resnet50/StatefulPartitionedCall/StatefulPartitionedCall/StatefulPartitionedCall/input/_949", "shape": [1, 1, 512, 1024], "dtype": "float32"}, {"name": "Func/StatefulPartitionedCall/sequential_6/Resnet50/StatefulPartitionedCall/StatefulPartitionedCall/StatefulPartitionedCall/input/_950", "shape": [1024], "dtype": "float32"}, {"name": "Func/StatefulPartitionedCall/sequential_6/Resnet50/StatefulPartitionedCall/StatefulPartitionedCall/StatefulPartitionedCall/input/_883", "shape": [1, 1, 256, 512], "dtype": "float32"}, {"name": "Func/StatefulPartitionedCall/sequential_6/Resnet50/StatefulPartitionedCall/StatefulPartitionedCall/StatefulPartitionedCall/input/_884", "shape": [512], "dtype": "float32"}, {"name": "Func/StatefulPartitionedCall/sequential_6/Resnet50/StatefulPartitionedCall/StatefulPartitionedCall/StatefulPartitionedCall/input/_833", "shape": [1, 1, 64, 256], "dtype": "float32"}, {"name": "Func/StatefulPartitionedCall/sequential_6/Resnet50/StatefulPartitionedCall/StatefulPartitionedCall/StatefulPartitionedCall/input/_834", "shape": [256], "dtype": "float32"}, {"name": "StatefulPartitionedCall/sequential_6/Resnet50/StatefulPartitionedCall/StatefulPartitionedCall/StatefulPartitionedCall/predict/hub_input/Mul/y", "shape": [], "dtype": "float32"}, {"name": "StatefulPartitionedCall/sequential_6/Resnet50/StatefulPartitionedCall/StatefulPartitionedCall/StatefulPartitionedCall/predict/hub_input/Sub/y", "shape": [], "dtype": "float32"}, {"name": "StatefulPartitionedCall/sequential_6/Resnet50/StatefulPartitionedCall/StatefulPartitionedCall/StatefulPartitionedCall/predict/resnet_v2_50/Pad/paddings", "shape": [4, 2], "dtype": "int32"}, {"name": "Func/StatefulPartitionedCall/sequential_6/Resnet50/StatefulPartitionedCall/StatefulPartitionedCall/StatefulPartitionedCall/input/_827", "shape": [7, 7, 3, 64], "dtype": "float32"}, {"name": "Func/StatefulPartitionedCall/sequential_6/Resnet50/StatefulPartitionedCall/StatefulPartitionedCall/StatefulPartitionedCall/input/_828", "shape": [64], "dtype": "float32"}, {"name": "StatefulPartitionedCall/sequential_6/Resnet50/StatefulPartitionedCall/StatefulPartitionedCall/StatefulPartitionedCall/predict/resnet_v2_50/block3/unit_6/bottleneck_v2/preact/FusedBatchNormV3/Offset", "shape": [1024], "dtype": "float32"}, {"name": "Func/StatefulPartitionedCall/sequential_6/Resnet50/StatefulPartitionedCall/StatefulPartitionedCall/StatefulPartitionedCall/input/_845", "shape": [1, 1, 64, 256], "dtype": "float32"}, {"name": "Func/StatefulPartitionedCall/sequential_6/Resnet50/StatefulPartitionedCall/StatefulPartitionedCall/StatefulPartitionedCall/input/_846", "shape": [256], "dtype": "float32"}, {"name": "Func/StatefulPartitionedCall/sequential_6/Resnet50/StatefulPartitionedCall/StatefulPartitionedCall/StatefulPartitionedCall/input/_861", "shape": [1, 1, 64, 256], "dtype": "float32"}, {"name": "Func/StatefulPartitionedCall/sequential_6/Resnet50/StatefulPartitionedCall/StatefulPartitionedCall/StatefulPartitionedCall/input/_862", "shape": [256], "dtype": "float32"}, {"name": "StatefulPartitionedCall/sequential_6/Resnet50/StatefulPartitionedCall/StatefulPartitionedCall/StatefulPartitionedCall/predict/resnet_v2_50/block1/unit_3/bottleneck_v2/Pad/paddings", "shape": [4, 2], "dtype": "int32"}, {"name": "Func/StatefulPartitionedCall/sequential_6/Resnet50/StatefulPartitionedCall/StatefulPartitionedCall/StatefulPartitionedCall/input/_877", "shape": [1, 1, 64, 256], "dtype": "float32"}, {"name": "Func/StatefulPartitionedCall/sequential_6/Resnet50/StatefulPartitionedCall/StatefulPartitionedCall/StatefulPartitionedCall/input/_878", "shape": [256], "dtype": "float32"}, {"name": "Func/StatefulPartitionedCall/sequential_6/Resnet50/StatefulPartitionedCall/StatefulPartitionedCall/StatefulPartitionedCall/input/_895", "shape": [1, 1, 128, 512], "dtype": "float32"}, {"name": "Func/StatefulPartitionedCall/sequential_6/Resnet50/StatefulPartitionedCall/StatefulPartitionedCall/StatefulPartitionedCall/input/_896", "shape": [512], "dtype": "float32"}, {"name": "Func/StatefulPartitionedCall/sequential_6/Resnet50/StatefulPartitionedCall/StatefulPartitionedCall/StatefulPartitionedCall/input/_911", "shape": [1, 1, 128, 512], "dtype": "float32"}, {"name": "Func/StatefulPartitionedCall/sequential_6/Resnet50/StatefulPartitionedCall/StatefulPartitionedCall/StatefulPartitionedCall/input/_912", "shape": [512], "dtype": "float32"}, {"name": "Func/StatefulPartitionedCall/sequential_6/Resnet50/StatefulPartitionedCall/StatefulPartitionedCall/StatefulPartitionedCall/input/_927", "shape": [1, 1, 128, 512], "dtype": "float32"}, {"name": "Func/StatefulPartitionedCall/sequential_6/Resnet50/StatefulPartitionedCall/StatefulPartitionedCall/StatefulPartitionedCall/input/_928", "shape": [512], "dtype": "float32"}, {"name": "StatefulPartitionedCall/sequential_6/Resnet50/StatefulPartitionedCall/StatefulPartitionedCall/StatefulPartitionedCall/predict/resnet_v2_50/block2/unit_4/bottleneck_v2/Pad/paddings", "shape": [4, 2], "dtype": "int32"}, {"name": "Func/StatefulPartitionedCall/sequential_6/Resnet50/StatefulPartitionedCall/StatefulPartitionedCall/StatefulPartitionedCall/input/_943", "shape": [1, 1, 128, 512], "dtype": "float32"}, {"name": "Func/StatefulPartitionedCall/sequential_6/Resnet50/StatefulPartitionedCall/StatefulPartitionedCall/StatefulPartitionedCall/input/_944", "shape": [512], "dtype": "float32"}, {"name": "Func/StatefulPartitionedCall/sequential_6/Resnet50/StatefulPartitionedCall/StatefulPartitionedCall/StatefulPartitionedCall/input/_961", "shape": [1, 1, 256, 1024], "dtype": "float32"}, {"name": "Func/StatefulPartitionedCall/sequential_6/Resnet50/StatefulPartitionedCall/StatefulPartitionedCall/StatefulPartitionedCall/input/_962", "shape": [1024], "dtype": "float32"}, {"name": "Func/StatefulPartitionedCall/sequential_6/Resnet50/StatefulPartitionedCall/StatefulPartitionedCall/StatefulPartitionedCall/input/_977", "shape": [1, 1, 256, 1024], "dtype": "float32"}, {"name": "Func/StatefulPartitionedCall/sequential_6/Resnet50/StatefulPartitionedCall/StatefulPartitionedCall/StatefulPartitionedCall/input/_978", "shape": [1024], "dtype": "float32"}, {"name": "Func/StatefulPartitionedCall/sequential_6/Resnet50/StatefulPartitionedCall/StatefulPartitionedCall/StatefulPartitionedCall/input/_993", "shape": [1, 1, 256, 1024], "dtype": "float32"}, {"name": "Func/StatefulPartitionedCall/sequential_6/Resnet50/StatefulPartitionedCall/StatefulPartitionedCall/StatefulPartitionedCall/input/_994", "shape": [1024], "dtype": "float32"}, {"name": "Func/StatefulPartitionedCall/sequential_6/Resnet50/StatefulPartitionedCall/StatefulPartitionedCall/StatefulPartitionedCall/input/_1009", "shape": [1, 1, 256, 1024], "dtype": "float32"}, {"name": "Func/StatefulPartitionedCall/sequential_6/Resnet50/StatefulPartitionedCall/StatefulPartitionedCall/StatefulPartitionedCall/input/_1010", "shape": [1024], "dtype": "float32"}, {"name": "Func/StatefulPartitionedCall/sequential_6/Resnet50/StatefulPartitionedCall/StatefulPartitionedCall/StatefulPartitionedCall/input/_1025", "shape": [1, 1, 256, 1024], "dtype": "float32"}, {"name": "Func/StatefulPartitionedCall/sequential_6/Resnet50/StatefulPartitionedCall/StatefulPartitionedCall/StatefulPartitionedCall/input/_1026", "shape": [1024], "dtype": "float32"}, {"name": "StatefulPartitionedCall/sequential_6/Resnet50/StatefulPartitionedCall/StatefulPartitionedCall/StatefulPartitionedCall/predict/resnet_v2_50/block3/unit_6/bottleneck_v2/Pad/paddings", "shape": [4, 2], "dtype": "int32"}, {"name": "Func/StatefulPartitionedCall/sequential_6/Resnet50/StatefulPartitionedCall/StatefulPartitionedCall/StatefulPartitionedCall/input/_1041", "shape": [1, 1, 256, 1024], "dtype": "float32"}, {"name": "Func/StatefulPartitionedCall/sequential_6/Resnet50/StatefulPartitionedCall/StatefulPartitionedCall/StatefulPartitionedCall/input/_1042", "shape": [1024], "dtype": "float32"}, {"name": "Func/StatefulPartitionedCall/sequential_6/Resnet50/StatefulPartitionedCall/StatefulPartitionedCall/StatefulPartitionedCall/input/_1059", "shape": [1, 1, 512, 2048], "dtype": "float32"}, {"name": "Func/StatefulPartitionedCall/sequential_6/Resnet50/StatefulPartitionedCall/StatefulPartitionedCall/StatefulPartitionedCall/input/_1060", "shape": [2048], "dtype": "float32"}, {"name": "Func/StatefulPartitionedCall/sequential_6/Resnet50/StatefulPartitionedCall/StatefulPartitionedCall/StatefulPartitionedCall/input/_1075", "shape": [1, 1, 512, 2048], "dtype": "float32"}, {"name": "Func/StatefulPartitionedCall/sequential_6/Resnet50/StatefulPartitionedCall/StatefulPartitionedCall/StatefulPartitionedCall/input/_1076", "shape": [2048], "dtype": "float32"}, {"name": "Func/StatefulPartitionedCall/sequential_6/Resnet50/StatefulPartitionedCall/StatefulPartitionedCall/StatefulPartitionedCall/input/_1091", "shape": [1, 1, 512, 2048], "dtype": "float32"}, {"name": "Func/StatefulPartitionedCall/sequential_6/Resnet50/StatefulPartitionedCall/StatefulPartitionedCall/StatefulPartitionedCall/input/_1092", "shape": [2048], "dtype": "float32"}, {"name": "StatefulPartitionedCall/sequential_6/Resnet50/StatefulPartitionedCall/StatefulPartitionedCall/StatefulPartitionedCall/predict/resnet_v2_50/pool5/reduction_indices", "shape": [2], "dtype": "int32"}, {"name": "StatefulPartitionedCall/sequential_6/Resnet50/StatefulPartitionedCall/StatefulPartitionedCall/StatefulPartitionedCall/predict/resnet_v2_50/block3/unit_5/bottleneck_v2/preact/FusedBatchNormV3/Scaled", "shape": [1024], "dtype": "float32"}, {"name": "StatefulPartitionedCall/sequential_6/Resnet50/StatefulPartitionedCall/StatefulPartitionedCall/StatefulPartitionedCall/predict/resnet_v2_50/block3/unit_5/bottleneck_v2/preact/FusedBatchNormV3/Offset", "shape": [1024], "dtype": "float32"}, {"name": "StatefulPartitionedCall/sequential_6/Resnet50/StatefulPartitionedCall/StatefulPartitionedCall/StatefulPartitionedCall/predict/resnet_v2_50/block3/unit_4/bottleneck_v2/preact/FusedBatchNormV3/Scaled", "shape": [1024], "dtype": "float32"}, {"name": "StatefulPartitionedCall/sequential_6/Resnet50/StatefulPartitionedCall/StatefulPartitionedCall/StatefulPartitionedCall/predict/resnet_v2_50/block3/unit_4/bottleneck_v2/preact/FusedBatchNormV3/Offset", "shape": [1024], "dtype": "float32"}, {"name": "StatefulPartitionedCall/sequential_6/Resnet50/StatefulPartitionedCall/StatefulPartitionedCall/StatefulPartitionedCall/predict/resnet_v2_50/block3/unit_3/bottleneck_v2/preact/FusedBatchNormV3/Scaled", "shape": [1024], "dtype": "float32"}, {"name": "StatefulPartitionedCall/sequential_6/Resnet50/StatefulPartitionedCall/StatefulPartitionedCall/StatefulPartitionedCall/predict/resnet_v2_50/block3/unit_3/bottleneck_v2/preact/FusedBatchNormV3/Offset", "shape": [1024], "dtype": "float32"}, {"name": "StatefulPartitionedCall/sequential_6/Resnet50/StatefulPartitionedCall/StatefulPartitionedCall/StatefulPartitionedCall/predict/resnet_v2_50/block3/unit_2/bottleneck_v2/preact/FusedBatchNormV3/Scaled", "shape": [1024], "dtype": "float32"}, {"name": "StatefulPartitionedCall/sequential_6/Resnet50/StatefulPartitionedCall/StatefulPartitionedCall/StatefulPartitionedCall/predict/resnet_v2_50/block3/unit_2/bottleneck_v2/preact/FusedBatchNormV3/Offset", "shape": [1024], "dtype": "float32"}, {"name": "StatefulPartitionedCall/sequential_6/Resnet50/StatefulPartitionedCall/StatefulPartitionedCall/StatefulPartitionedCall/predict/resnet_v2_50/block3/unit_1/bottleneck_v2/preact/FusedBatchNormV3/Scaled", "shape": [512], "dtype": "float32"}, {"name": "StatefulPartitionedCall/sequential_6/Resnet50/StatefulPartitionedCall/StatefulPartitionedCall/StatefulPartitionedCall/predict/resnet_v2_50/block3/unit_1/bottleneck_v2/preact/FusedBatchNormV3/Offset", "shape": [512], "dtype": "float32"}, {"name": "StatefulPartitionedCall/sequential_6/Resnet50/StatefulPartitionedCall/StatefulPartitionedCall/StatefulPartitionedCall/predict/resnet_v2_50/block2/unit_4/bottleneck_v2/preact/FusedBatchNormV3/Scaled", "shape": [512], "dtype": "float32"}, {"name": "StatefulPartitionedCall/sequential_6/Resnet50/StatefulPartitionedCall/StatefulPartitionedCall/StatefulPartitionedCall/predict/resnet_v2_50/block2/unit_4/bottleneck_v2/preact/FusedBatchNormV3/Offset", "shape": [512], "dtype": "float32"}, {"name": "StatefulPartitionedCall/sequential_6/Resnet50/StatefulPartitionedCall/StatefulPartitionedCall/StatefulPartitionedCall/predict/resnet_v2_50/block2/unit_3/bottleneck_v2/preact/FusedBatchNormV3/Scaled", "shape": [512], "dtype": "float32"}, {"name": "StatefulPartitionedCall/sequential_6/Resnet50/StatefulPartitionedCall/StatefulPartitionedCall/StatefulPartitionedCall/predict/resnet_v2_50/block2/unit_3/bottleneck_v2/preact/FusedBatchNormV3/Offset", "shape": [512], "dtype": "float32"}, {"name": "StatefulPartitionedCall/sequential_6/Resnet50/StatefulPartitionedCall/StatefulPartitionedCall/StatefulPartitionedCall/predict/resnet_v2_50/block2/unit_2/bottleneck_v2/preact/FusedBatchNormV3/Scaled", "shape": [512], "dtype": "float32"}, {"name": "StatefulPartitionedCall/sequential_6/Resnet50/StatefulPartitionedCall/StatefulPartitionedCall/StatefulPartitionedCall/predict/resnet_v2_50/block2/unit_2/bottleneck_v2/preact/FusedBatchNormV3/Offset", "shape": [512], "dtype": "float32"}, {"name": "StatefulPartitionedCall/sequential_6/Resnet50/StatefulPartitionedCall/StatefulPartitionedCall/StatefulPartitionedCall/predict/resnet_v2_50/block2/unit_1/bottleneck_v2/preact/FusedBatchNormV3/Scaled", "shape": [256], "dtype": "float32"}, {"name": "StatefulPartitionedCall/sequential_6/Resnet50/StatefulPartitionedCall/StatefulPartitionedCall/StatefulPartitionedCall/predict/resnet_v2_50/block2/unit_1/bottleneck_v2/preact/FusedBatchNormV3/Offset", "shape": [256], "dtype": "float32"}, {"name": "StatefulPartitionedCall/sequential_6/Resnet50/StatefulPartitionedCall/StatefulPartitionedCall/StatefulPartitionedCall/predict/resnet_v2_50/block1/unit_3/bottleneck_v2/preact/FusedBatchNormV3/Scaled", "shape": [256], "dtype": "float32"}, {"name": "StatefulPartitionedCall/sequential_6/Resnet50/StatefulPartitionedCall/StatefulPartitionedCall/StatefulPartitionedCall/predict/resnet_v2_50/block1/unit_3/bottleneck_v2/preact/FusedBatchNormV3/Offset", "shape": [256], "dtype": "float32"}, {"name": "StatefulPartitionedCall/sequential_6/Resnet50/StatefulPartitionedCall/StatefulPartitionedCall/StatefulPartitionedCall/predict/resnet_v2_50/block1/unit_2/bottleneck_v2/preact/FusedBatchNormV3/Scaled", "shape": [256], "dtype": "float32"}, {"name": "StatefulPartitionedCall/sequential_6/Resnet50/StatefulPartitionedCall/StatefulPartitionedCall/StatefulPartitionedCall/predict/resnet_v2_50/block1/unit_2/bottleneck_v2/preact/FusedBatchNormV3/Offset", "shape": [256], "dtype": "float32"}, {"name": "StatefulPartitionedCall/sequential_6/Resnet50/StatefulPartitionedCall/StatefulPartitionedCall/StatefulPartitionedCall/predict/resnet_v2_50/block1/unit_1/bottleneck_v2/preact/FusedBatchNormV3/Scaled", "shape": [64], "dtype": "float32"}, {"name": "StatefulPartitionedCall/sequential_6/Resnet50/StatefulPartitionedCall/StatefulPartitionedCall/StatefulPartitionedCall/predict/resnet_v2_50/block1/unit_1/bottleneck_v2/preact/FusedBatchNormV3/Offset", "shape": [64], "dtype": "float32"}, {"name": "StatefulPartitionedCall/sequential_6/Resnet50/StatefulPartitionedCall/StatefulPartitionedCall/StatefulPartitionedCall/predict/resnet_v2_50/postnorm/FusedBatchNormV3/Scaled", "shape": [2048], "dtype": "float32"}, {"name": "StatefulPartitionedCall/sequential_6/Resnet50/StatefulPartitionedCall/StatefulPartitionedCall/StatefulPartitionedCall/predict/resnet_v2_50/postnorm/FusedBatchNormV3/Offset", "shape": [2048], "dtype": "float32"}, {"name": "StatefulPartitionedCall/sequential_6/Resnet50/StatefulPartitionedCall/StatefulPartitionedCall/StatefulPartitionedCall/predict/resnet_v2_50/block4/unit_3/bottleneck_v2/preact/FusedBatchNormV3/Scaled", "shape": [2048], "dtype": "float32"}, {"name": "StatefulPartitionedCall/sequential_6/Resnet50/StatefulPartitionedCall/StatefulPartitionedCall/StatefulPartitionedCall/predict/resnet_v2_50/block4/unit_3/bottleneck_v2/preact/FusedBatchNormV3/Offset", "shape": [2048], "dtype": "float32"}, {"name": "StatefulPartitionedCall/sequential_6/Resnet50/StatefulPartitionedCall/StatefulPartitionedCall/StatefulPartitionedCall/predict/resnet_v2_50/block4/unit_2/bottleneck_v2/preact/FusedBatchNormV3/Scaled", "shape": [2048], "dtype": "float32"}, {"name": "StatefulPartitionedCall/sequential_6/Resnet50/StatefulPartitionedCall/StatefulPartitionedCall/StatefulPartitionedCall/predict/resnet_v2_50/block4/unit_2/bottleneck_v2/preact/FusedBatchNormV3/Offset", "shape": [2048], "dtype": "float32"}, {"name": "StatefulPartitionedCall/sequential_6/Resnet50/StatefulPartitionedCall/StatefulPartitionedCall/StatefulPartitionedCall/predict/resnet_v2_50/block4/unit_1/bottleneck_v2/preact/FusedBatchNormV3/Scaled", "shape": [1024], "dtype": "float32"}, {"name": "StatefulPartitionedCall/sequential_6/Resnet50/StatefulPartitionedCall/StatefulPartitionedCall/StatefulPartitionedCall/predict/resnet_v2_50/block4/unit_1/bottleneck_v2/preact/FusedBatchNormV3/Offset", "shape": [1024], "dtype": "float32"}, {"name": "StatefulPartitionedCall/sequential_6/Resnet50/StatefulPartitionedCall/StatefulPartitionedCall/StatefulPartitionedCall/predict/resnet_v2_50/block3/unit_6/bottleneck_v2/preact/FusedBatchNormV3/Scaled", "shape": [1024], "dtype": "float32"}]}]}